model_adam.pth (torch, 255266 bytes, 10 tensors)

weight f4 [6, 3, 5, 5]
0	0x3c5f4dab	0.013629357
1	0x3ea4e354	0.32204688
2	0xbdde8d5e	-0.108668074
3	0xbdf4ab1f	-0.11946701
4	0x3d6e97c2	0.058250196
5	0x3e670b9b	0.22563021
6	0x3e0fe384	0.14051634
7	0xbf0303b4	-0.51177526
8	0x3ccae863	0.024769014
9	0x3dc1e3b5	0.0946726
10	0x3e8cbd23	0.2748805
11	0xbd63dad1	-0.0556286
12	0xbee69329	-0.4503415
13	0x3e93c762	0.28863055
14	0x3c995f92	0.01872233
15	0x3e5fac79	0.21843137
16	0xbeb35487	-0.35025427
17	0xbe4305b3	-0.19045143
18	0x3e7a192f	0.2442367
19	0x3d946bd6	0.072471306
20	0x3cbf995b	0.023388555
21	0xbe08219a	-0.13294068
22	0xbc280f96	-0.010257622
23	0x3bdde1df	0.0067713107
24	0xbe15c239	-0.14624871
25	0xbcd9a523	-0.026568001
26	0x3dd72985	0.10505966
27	0xbe9683c2	-0.29397398
28	0xbe31377b	-0.1730632
29	0x3e17f608	0.14839947
30	0x3e46438a	0.19361702
31	0x3da330a2	0.0796826
32	0xbf1ef467	-0.6209168
33	0x3d71be55	0.059019405
34	0x3e63b3ad	0.2223651
35	0x3e0a5600	0.13509369
36	0xbe8f9ff8	-0.28051734
37	0xbf1b183e	-0.60583866
38	0x3eb1e0f3	0.34741935
39	0x3e6314c5	0.22175892
40	0xbe02fe5b	-0.12792341
41	0xbe86894a	-0.26276618
42	0xbe6c45f1	-0.23073556
43	0x3ecc9a84	0.39961636
44	0x3e1b945d	0.15193315
45	0xbdc4f98e	-0.09617911
46	0xbdb2d114	-0.08731285
47	0xbde75f67	-0.112974934
48	0x3e3fef67	0.18743668
49	0xbcd8b572	-0.026453707
50	0xbd70ac4e	-0.058758073
51	0x3b86058c	0.0040900167
52	0xbd729cd3	-0.05923159
53	0xbc45e5f1	-0.012078748
54	0xbe1629a8	-0.14664328
55	0x3d2f2d97	0.042768087
56	0x3d22f4f5	0.03978439
57	0xbe95e72c	-0.29277933
58	0x3e110e68	0.14165652
59	0x3d538f6e	0.051650457
60	0x3d450f5e	0.04811036
61	0xbe1714de	-0.14754054
62	0xbe805e79	-0.25072077
63	0x3e68e462	0.22743371
64	0x3d686056	0.056732498
65	0xbc86a0eb	-0.016434154
66	0xbe156fcc	-0.14593428
67	0xbc8a03d9	-0.016847538
68	0x3e9351c1	0.2877331
69	0xbb5d8685	-0.0033802104
70	0xbdb1c6f8	-0.086805284
71	0x3d2cffa0	0.04223597
72	0x3e88216b	0.26587996
73	0x3e920d24	0.2852565
74	0xbcace859	-0.021106886
75	0x3d7d21d6	0.061799847
76	0xbd84facc	-0.06493148
77	0x3e51e83c	0.20498747
78	0xbd7d64ea	-0.061863817
79	0x3d10a993	0.03531797
80	0xbdcd198d	-0.10014639
81	0xbe41339d	-0.18867345
82	0xbe623b3b	-0.22092907
83	0xbedb881d	-0.42877284
84	0x3d6efe43	0.05834795
85	0xbd18415a	-0.0371717
86	0x3d6893b1	0.056781475
87	0x3ed1fc02	0.4101258
88	0x3eae2340	0.3401127
89	0xbf04386e	-0.51648605
90	0xbde92761	-0.11384464
91	0xbe970055	-0.2949244
92	0xbe936ab5	-0.28792349
93	0x3f09541c	0.53643966
94	0xbe3f2e2b	-0.18669955
95	0x3d6c6333	0.05771179
96	0x3e9a4f87	0.301388
97	0xbefe7e88	-0.4970591
98	0xbeef731a	-0.46767503
99	0x3d739a83	0.059473526
100	0x3bd87d06	0.006606701
101	0x3d1604dd	0.03662573
102	0x3df02c90	0.117272496
103	0xbd9ba2b8	-0.075993955
104	0x3e35ef95	0.17767175
105	0x3d815798	0.06315535
106	0xbe1ac5e8	-0.15114558
107	0xbd6285d1	-0.0553034
108	0xbe18bb6f	-0.1491525
109	0x3e8151ba	0.25257665
110	0x3de21e77	0.11040967
111	0x3e5e3299	0.21698989
112	0x3efb753f	0.4911289
113	0x3f001e51	0.5004626
114	0xbe005f15	-0.12536271
115	0xbd814a5e	-0.063130125
116	0xbe3bb647	-0.18331252
117	0xbd938122	-0.072023645
118	0x3f6aa367	0.9165558
119	0x3c87918a	0.01654889
120	0x3d52f535	0.05150338
121	0x3e97abca	0.29623252
122	0xbe6c2f6b	-0.23064964
123	0xbe0a3865	-0.13498075
124	0x3e0a68a2	0.13516477
125	0xbd91c5b6	-0.071177885
126	0x3dc2cfd6	0.09512298
127	0x3d033715	0.032034952
128	0xbe2b907d	-0.16754337
129	0xbd05116f	-0.03248733
130	0x3dfce076	0.123475
131	0xbe2862c9	-0.16443934
132	0xbe652fda	-0.22381535
133	0xbec27225	-0.3797771
134	0x3e363031	0.17791821
135	0x3d82a6ff	0.06379508
136	0x3d62d799	0.05538139
137	0x3e8c5886	0.27411288
138	0x3d630a16	0.05542954
139	0xbea08201	-0.31349185
140	0x3d3e1b3f	0.046412703
141	0xbe37cd45	-0.17949398
142	0xbe8b32e1	-0.27187255
143	0x3f025fd9	0.509275
144	0xbde4145b	-0.11136695
145	0x3d3c1501	0.04591847
146	0x3e941556	0.28922528
147	0xbec0990d	-0.37616768
148	0xbec048ac	-0.37555444
149	0x3dbe0c68	0.0927971
150	0xbdc3f95a	-0.095690444
151	0x3cec5f7c	0.028854124
152	0xbd6899fa	-0.05678747
153	0xbac1091c	-0.0014727446
154	0x3d16a08f	0.036774214
155	0xbe7c1ade	-0.24619624
156	0xbe605804	-0.21908575
157	0xbc62dec4	-0.013847057
158	0x3d264ad0	0.04059869
159	0x3dd66a7d	0.1046953
160	0xbe99d4a9	-0.3004506
161	0xbec19d54	-0.37815344
162	0xbe814772	-0.2524982
163	0xbe8fd168	-0.28089452
164	0xbdf97013	-0.121795796
165	0xbe259234	-0.16169053
166	0xbe3145f9	-0.17311849
167	0xbde4a7f2	-0.111648455
168	0xbd4299b3	-0.04750986
169	0x3d876182	0.06610395
170	0x3b556044	0.00325586
171	0xbd5c6274	-0.05380483
172	0xbbaa4d65	-0.0051972144
173	0x3e0968e3	0.13418917
174	0x3e0c72ed	0.13715716
175	0xbd356bb7	-0.044292178
176	0x3d21a3e5	0.039462943
177	0xbd748d14	-0.059704855
178	0xbe1d4e4b	-0.15361898
179	0x3c1784f6	0.009248009
180	0x3be79214	0.0070669744
181	0x3e469a8d	0.19394894
182	0x3c58c914	0.0132315345
183	0xbadc7f72	-0.001682265
184	0x3becbb8f	0.007224507
185	0xbdcb0d5f	-0.0991466
186	0x3e0a0520	0.13478518
187	0x3d487376	0.048938237
188	0x3d941d09	0.072321005
189	0xbcba61d2	-0.022751722
190	0x3cdd0680	0.026980639
191	0x3e634884	0.22195631
192	0x3e01c54a	0.12672916
193	0x3df89517	0.12137812
194	0x3d07d763	0.033164393
195	0xbe84c782	-0.25933462
196	0xbdb9cd71	-0.09072388
197	0xbdd63502	-0.10459329
198	0xbe7953fc	-0.24348444
199	0xbdba5e10	-0.09099972
200	0x3e679c47	0.22618209
201	0x3e43a40d	0.19105549
202	0x3e1d8490	0.153826
203	0xbdb7c6a8	-0.089734375
204	0xbe54e742	-0.20791343
205	0x3e21d183	0.15802579
206	0x3ec6ad2d	0.38803998
207	0x3e465fdd	0.19372506
208	0x3db7e704	0.089796096
209	0xbd9086f6	-0.07056992
210	0x3e498149	0.19678225
211	0x3ecc9c9f	0.39963242
212	0x3e8e12d4	0.2774874
213	0x3df7f4ee	0.121072635
214	0xbd908e79	-0.070584245
215	0x3e68661b	0.226952
216	0x3ecfaa23	0.40559492
217	0x3e8fe625	0.28105274
218	0x3df9522a	0.12173875
219	0x3d811f79	0.06304831
220	0x3d7901d9	0.060792778
221	0x3e6ec843	0.23318581
222	0x3e313596	0.17305598
223	0xbe262d7f	-0.16228293
224	0xbe6e71a7	-0.23285542
225	0x3ecaad64	0.39585412
226	0x3f3ab701	0.7293549
227	0x3f2a1be3	0.664488
228	0x3f2fe4e0	0.6870861
229	0x3e2aa0c4	0.1666289
230	0x3d9a80f4	0.07544127
231	0x3c1d3341	0.009594739
232	0xbe03e51d	-0.12880369
233	0x3e2f7323	0.17133765
234	0x3e853f60	0.26024914
235	0xbd773e64	-0.060362235
236	0xbeb7bfcd	-0.3588852
237	0xbed37c38	-0.4130571
238	0xbe306728	-0.17226851
239	0x3cd09e61	0.025466146
240	0x3bbdbb88	0.0057901777
241	0xbdd9d934	-0.10637131
242	0xbe4490fa	-0.19195929
243	0xbe86d891	-0.26337102
244	0xbdcd9871	-0.100388415
245	0xbeb39c2a	-0.3508008
246	0xbe88a3df	-0.26687524
247	0xbdddddb8	-0.10833305
248	0xbe934a23	-0.287675
249	0xbe0f4a0d	-0.13993092
250	0xbe706f32	-0.23479918
251	0x3e6c8fb6	0.23101696
252	0x3eaf9978	0.34296775
253	0x3e4c8e11	0.19976069
254	0xbe06da81	-0.1316929
255	0xbe21a5e3	-0.15785937

bias f4 [6]
0	0xbeaf6fa7	-0.3426487
1	0xbe562545	-0.20912655
2	0x3e067e6b	0.13134162
3	0xbef1b4f5	-0.47208372
4	0xbe664304	-0.22486502
5	0xbed61c3b	-0.41818413

weight f4 [16, 6, 5, 5]
0	0xbe8bf70f	-0.27336928
1	0xbeb5a792	-0.35479409
2	0x3e0a0a9f	0.13480614
3	0xbda47aff	-0.08031272
4	0x3e8079da	0.25092965
5	0xbef8fe67	-0.48631594
6	0xbf5f5f08	-0.8725438
7	0xbe7f732f	-0.24946283
8	0x3ed1ca9d	0.40974894
9	0x3e934b18	0.2876823
10	0xbeb09840	-0.34491158
11	0xbf4e3bf1	-0.80560213
12	0xbe6833ec	-0.22676057
13	0x3ed72e30	0.42027426
14	0x3e8c51ae	0.27406067
15	0xbeadf7ab	-0.33978018
16	0xbf5add6c	-0.8549411
17	0xbcd4a479	-0.025957333
18	0x3e46c285	0.19410141
19	0x3e4be863	0.19912867
20	0xbefba670	-0.4915042
21	0xbf77d5c0	-0.9681053
22	0xbebb3e5a	-0.36571008
23	0x3e432886	0.19058427
24	0x3e6f1ca7	0.23350774
25	0x3e6d7122	0.23187688
26	0x3e82e4f5	0.25565305
27	0x3ca1af77	0.019736988
28	0xbd808034	-0.06274453
29	0xbe44a28a	-0.19202629
30	0x3e6e42d5	0.23267682
31	0x3d1965d5	0.03745063
32	0x3dcc6aca	0.09981306
33	0xbe2210cd	-0.15826721
34	0xbe8e6add	-0.27815905
35	0x3e1818e4	0.14853245
36	0x3e23a9b2	0.15982702
37	0x3d26e65a	0.040747024
38	0xbe19e6c4	-0.15029436
39	0xbddd184c	-0.1079565
40	0x3e003326	0.12519512
41	0x3e879600	0.26481628
42	0x3e5b9c00	0.21446228
43	0xbdbcc235	-0.092167296
44	0xbda1bc22	-0.078972116
45	0x3dff4b7f	0.124655716
46	0x3e89ea1d	0.26936427
47	0xbe100cdb	-0.14067404
48	0x3e66fb1e	0.22556731
49	0x3d154b72	0.036448903
50	0x3e219db7	0.1578282
51	0x3d109db6	0.035306655
52	0x3d7b012e	0.061280422
53	0x3cdf70ac	0.027275406
54	0x3e44ab0f	0.19205879
55	0xbae78e57	-0.0017666322
56	0x3cf52dd6	0.029929083
57	0xbdd2603b	-0.10272261
58	0xbe1acb29	-0.15116562
59	0x3e0e6b46	0.13908109
60	0xbe7d8fec	-0.24761933
61	0x3d91d42f	0.07120549
62	0x3dd2ef6f	0.102995746
63	0xbe0a5ee8	-0.13512766
64	0x3bdb4cbc	0.006692497
65	0xbde942ec	-0.113897175
66	0x3e86791a	0.26264268
67	0x3e82d05b	0.25549588
68	0xbd8d6926	-0.06904821
69	0xbbd8cb11	-0.0066160043
70	0xbe9c7edf	-0.30565545
71	0x3e17b255	0.14814122
72	0xbe333d8d	-0.17503949
73	0xbecdec87	-0.4021952
74	0xbe5a3345	-0.2130862
75	0x3e40b297	0.18818127
76	0x3e500d40	0.20317554
77	0xbe0c7c61	-0.13719322
78	0xbda93861	-0.082627065
79	0x3dca8190	0.09887993
80	0x3dcaa126	0.09894018
81	0x3d7a77fe	0.06114959
82	0xbda3c1e6	-0.079959676
83	0xbd22a571	-0.03970856
84	0x3e4aebf6	0.19816574
85	0x3abfca1c	0.0014632377
86	0xbd0ebf86	-0.03485062
87	0xbe15b9e8	-0.14621699
88	0xbe3a3025	-0.18182428
89	0xbebd0aa9	-0.36922196
90	0x3e6aac27	0.22917233
91	0x3dcd2fed	0.10018907
92	0x3e326c2c	0.17424077
93	0xbdcd2ce2	-0.10018326
94	0xbe05e6da	-0.13076344
95	0xbd9ee3ef	-0.07758319
96	0xbd518499	-0.051151846
97	0x3c4efcac	0.012633484
98	0xbe9bcd68	-0.3043015
99	0xbed5798a	-0.4169429
100	0xbe012c0f	-0.12614463
101	0xbe67b0d0	-0.22626042
102	0x3e4877b1	0.19576909
103	0x3e1e4e4b	0.15459554
104	0xbe046c13	-0.12931852
105	0xbe3b57cb	-0.18295209
106	0xbf65c705	-0.89756805
107	0xbd80732d	-0.06271968
108	0xbbc501a0	-0.0060121566
109	0x3eab5022	0.33459574
110	0xbf0a8bc2	-0.54119503
111	0xbfda108e	-1.7036302
112	0xbe9133aa	-0.2835973
113	0xbcbaf8dc	-0.022823744
114	0x3e75f435	0.24018939
115	0xbf179737	-0.5921511
116	0xbf8b6d12	-1.0892661
117	0xbe74d07b	-0.23907654
118	0x3e34a02a	0.17639223
119	0x3e78325a	0.24237958
120	0xbfc0acda	-1.505275
121	0xbf740cbd	-0.9533194
122	0x3b03c404	0.0020105848
123	0x3e703a09	0.23459639
124	0x3e5e68ee	0.21719715
125	0x3d236c1d	0.039898027
126	0x3e01e701	0.12685777
127	0x3e0a10d1	0.13482977
128	0xbe95d257	-0.2926204
129	0xbe11b898	-0.14230573
130	0xbd0152e2	-0.031573184
131	0x3e240d85	0.16020782
132	0x3e719394	0.23591453
133	0xbe87fd76	-0.26560563
134	0xbcf3cee5	-0.029761741
135	0xbd2f2867	-0.04276314
136	0x3e39d246	0.18146619
137	0x3d9bf36f	0.07614791
138	0xbeb08a9c	-0.3448075
139	0xbf0b6fc6	-0.5446743
140	0x3e00b1f2	0.12567881
141	0x3ee66dc5	0.45005623
142	0x3e57154b	0.21004216
143	0xbcef78e2	-0.029232446
144	0xbf0ae3bb	-0.5425374
145	0x3d8a9f24	0.06768635
146	0x3eb5639f	0.35427567
147	0x3ef3f17f	0.47645184
148	0xbcf39015	-0.02973179
149	0xbe831553	-0.25602207
150	0xbe252a8c	-0.16129512
151	0x3d1bdf86	0.038054965
152	0xbe186b16	-0.148846
153	0xbdca4686	-0.098767325
154	0xbecb9172	-0.39759403
155	0x3e4a23be	0.19740197
156	0xbe04f42b	-0.12983768
157	0x3da4eaa3	0.08052566
158	0x3d41af75	0.04728647
159	0xbd91fd2b	-0.07128366
160	0x3e7e45d1	0.2483132
161	0xbcd71b80	-0.02625823
162	0x3e4f5b2a	0.2024962
163	0xbda1d002	-0.079010025
164	0x3e48ef9f	0.19622658
165	0x3e672f87	0.22576724
166	0xbcd538ab	-0.026027998
167	0x3ec40805	0.38287368
168	0xbd50d7e8	-0.050987154
169	0x3f1db52b	0.61604565
170	0x3d274369	0.04083577
171	0xbebf0fcb	-0.37316737
172	0x3de99a6e	0.11406408
173	0x3e3745f1	0.17897774
174	0x3ee04bcd	0.4380783
175	0xbd24638b	-0.040133994
176	0xbd248a4f	-0.040170964
177	0x3ddcaa7d	0.107747056
178	0x3e05ab18	0.13053548
179	0x3dc552ca	0.096349314
180	0x3e22f5de	0.15914103
181	0x3d5b4ed5	0.053541977
182	0x3db08e8b	0.08620938
183	0x3d152d3c	0.036420092
184	0xbe307b2b	-0.17234485
185	0xbd40e81c	-0.047096357
186	0x3d80469b	0.06263467
187	0xb8f6aa68	-0.00011761935
188	0xbe171201	-0.14752962
189	0x3bdae9d4	0.0066807065
190	0x3eadad6d	0.33921376
191	0x3eaf35f1	0.34220842
192	0x3e3b0a4d	0.18265648
193	0xbc2c8834	-0.01053052
194	0xbe07bb4f	-0.13255046
195	0xbe75567c	-0.23958772
196	0xbd78f419	-0.060779665
197	0xbdd69633	-0.10477867
198	0xbea3b736	-0.31975716
199	0xbdb850aa	-0.089997604
200	0x3e6a1656	0.22860083
201	0x3eb1188d	0.34589043
202	0x3eb7c3ea	0.35891658
203	0x3e8f2f9a	0.27966005
204	0x3ecf2aec	0.40462434
205	0xbd0ddb37	-0.034632888
206	0x3de86fa1	0.113494165
207	0x3e510ef1	0.20415856
208	0x3d7c2d8b	0.06156687
209	0xbd1dde89	-0.038542304
210	0xbdb95ef0	-0.09051311
211	0x3d2e54f3	0.042561483
212	0xbd4b8363	-0.049685847
213	0x3daa0b7c	0.08302972
214	0xbd55c71a	-0.05219183
215	0xbe0f11cf	-0.13971637
216	0x3d46882e	0.048469715
217	0xbd7c4369	-0.061587725
218	0xbdb4f259	-0.08835287
219	0xbe79b1d1	-0.24384238
220	0xbedfcc36	-0.43710488
221	0xbe30be85	-0.17260177
222	0xbe8b86d5	-0.27251306
223	0x3a8e9a35	0.0010879698
224	0xbe915d5b	-0.28391537
225	0x3de7a2bf	0.11310338
226	0xbcc99ca6	-0.024610829
227	0xbe1bdcbc	-0.15220922
228	0x3e0ebbb1	0.13938786
229	0x3e3e5fd5	0.18591245
230	0x3e258d14	0.16167098
231	0xbe25e48d	-0.16200466
232	0xbddaa779	-0.10676474
233	0xbad5290f	-0.0016262847
234	0x3dad3247	0.08456855
235	0x3e0bdb9f	0.13657998
236	0xbdb2ae0d	-0.08724604
237	0xbc8aaecc	-0.016929053
238	0x3d12ddce	0.03585606
239	0x3dcadc76	0.09905331
240	0x3ddddd84	0.108332664
241	0xbe32d33a	-0.17463389
242	0xbc23aa99	-0.009989404
243	0xbc4632e8	-0.012097098
244	0xbe20d431	-0.15705945
245	0x3d9b120a	0.075718
246	0x3e941196	0.28919667
247	0x3e261e77	0.16222559
248	0xbce70b2d	-0.028203571
249	0xbe217f26	-0.1577116
250	0xbe3d8a5b	-0.1850981
251	0xbd243648	-0.04009083
252	0xbdfd9d76	-0.12383549
253	0xbe20950c	-0.15681857
254	0xbd224e91	-0.039625708
255	0x3cc0e5d1	0.023547085

bias f4 [16]
0	0x3f20ac5d	0.62763005
1	0xbf96cffd	-1.1782223
2	0x3ea93b9a	0.33053285
3	0xbda4922c	-0.080356926
4	0xbdafa7f1	-0.08576954
5	0x3fbc8b0a	1.4729931
6	0xbe98d313	-0.29848537
7	0xbeb47900	-0.35248566
8	0x3f4511c3	0.7698023
9	0x3f5cba13	0.86221427
10	0xbdc4458d	-0.09583578
11	0xbeba465f	-0.36381814
12	0x3da24ac9	0.079244204
13	0xbcc1aa3b	-0.023640743
14	0x3e37243a	0.17884913
15	0x3f160495	0.5860074

weight f4 [120, 400]
0	0xbc50bc29	-0.012740173
1	0xbd00b154	-0.031419113
2	0xbcaa5cd4	-0.020796217
3	0xbcdde893	-0.02708844
4	0xbc7193b2	-0.014744686
5	0xbc8f36e8	-0.017482236
6	0x3cc969d0	0.024586588
7	0x3c1db9d4	0.009626824
8	0x3cd51e35	0.02601538
9	0x3a9a63f8	0.0011779061
10	0x3d04d623	0.03243078
11	0x3c465211	0.012104527
12	0x3c10b7da	0.008832896
13	0xbb87127b	-0.004122076
14	0xbc25a80c	-0.010110866
15	0xbd18ccc9	-0.037304673
16	0xbc4a333c	-0.012341317
17	0x3c179d0e	0.009253753
18	0xbcab5bb3	-0.020917749
19	0x3c327f73	0.010894644
20	0xbcecaa15	-0.028889695
21	0xbc0b4ef8	-0.008502714
22	0xbd1a7688	-0.037710696
23	0xbc955357	-0.018228216
24	0xbc7ceb1f	-0.015436917
25	0xbc025e20	-0.007957011
26	0x3a8b036e	0.001060588
27	0xbd88834f	-0.0666567
28	0xbcceaee6	-0.025229882
29	0xbc4e792e	-0.012602134
30	0xbcaf86a0	-0.021426499
31	0x3cd8bcb0	0.02645716
32	0xbd2d02ad	-0.04223888
33	0xbd1442d6	-0.036196552
34	0xbd200124	-0.039063588
35	0xbd04b3e9	-0.03239814
36	0xbd3a7868	-0.045524985
37	0xbc18f8e6	-0.009336686
38	0x3c4f648a	0.012658248
39	0xbd3609b7	-0.04444286
40	0xbd63485f	-0.05548894
41	0x3c03a479	0.008034819
42	0xbcd2a39c	-0.02571278
43	0xbcb57e6b	-0.022155007
44	0xbc8efcea	-0.017454583
45	0x3b37ea11	0.0028063098
46	0x3bfef882	0.0077810893
47	0xbd65e78f	-0.056129035
48	0xbbbbb44e	-0.005728281
49	0xbd0a2d1f	-0.033734437
50	0x3bf5e4a1	0.0075040613
51	0x3c4d910e	0.012546791
52	0x3d2cf08a	0.042221583
53	0x3d1b390d	0.037896205
54	0xbd3187c9	-0.043342385
55	0x3d1e62d5	0.038668472
56	0x3d0f6507	0.035008457
57	0xbc0f3293	-0.008740085
58	0x3cbafe2a	0.022826273
59	0x3d0d9a0b	0.034570735
60	0xbb5ca27c	-0.0033666184
61	0x3d25287e	0.04032182
62	0x3d27cd30	0.040967166
63	0x3ce5e678	0.028063998
64	0x3d17dee9	0.037077818
65	0x3d144d78	0.036206692
66	0x3c020633	0.007936048
67	0x3ba33c84	0.0049815793
68	0xbd31345d	-0.04326283
69	0xbd30834b	-0.04309396
70	0xbb2b2776	-0.002611605
71	0xbc842e13	-0.016135251
72	0x3ce5618d	0.028000617
73	0x3d0bee1f	0.034162637
74	0x3c1c4471	0.009537802
75	0xba9e8000	-0.001209259
76	0x3d008e37	0.031385627
77	0x3cc4994a	0.023998875
78	0xbd4723d7	-0.048618164
79	0xbd339563	-0.04384364
80	0xbbe5dcc0	-0.007014841
81	0xbd4bc4b5	-0.04974814
82	0x3d20d9f7	0.039270367
83	0xbd3a566a	-0.045492567
84	0xbd042efb	-0.032271367
85	0xbb7b0780	-0.003830403
86	0xbd3f6298	-0.046724886
87	0x3b339eb3	0.0027407825
88	0x3bddc35a	0.0067676725
89	0xbd490df0	-0.049085557
90	0xbbc02580	-0.0058638453
91	0x3c0fbca7	0.008773006
92	0xbd46d96a	-0.048547186
93	0x3d02d2b8	0.03193924
94	0x3c263867	0.010145283
95	0xbd18fae7	-0.037348654
96	0xbd404ddb	-0.04694925
97	0xbc227d7a	-0.009917611
98	0x3ce72913	0.028217828
99	0x3ac20467	0.0014802337
100	0xbd4ba43f	-0.049717184
101	0xbc5183f1	-0.012787805
102	0xbd51a05c	-0.05117832
103	0xbce93cc5	-0.02847136
104	0xbd3beb65	-0.045878787
105	0xbcd718fb	-0.026257029
106	0xbd3e930a	-0.046526946
107	0xbcbac87a	-0.022800673
108	0xbd3fdacb	-0.046839517
109	0xbd51de26	-0.051237248
110	0xbd5a46bf	-0.053290125
111	0xbd4b8225	-0.049684662
112	0xbd188e76	-0.037245236
113	0xbd156310	-0.036471426
114	0xbd30213b	-0.04300044
115	0xbce467fd	-0.027881617
116	0xbc99016b	-0.018677434
117	0x3b265f8b	0.0025386538
118	0x3c51e0c5	0.012809937
119	0xbc671877	-0.014104954
120	0xbd9be787	-0.0761252
121	0xbd33b82f	-0.043876823
122	0xbd4066e1	-0.046973113
123	0xbcf90086	-0.030395757
124	0xbb6aa9df	-0.0035806817
125	0xbccdca02	-0.025120739
126	0x3ccb7372	0.024835322
127	0x3aca7db6	0.0015448842
128	0x3c763e95	0.015029569
129	0xbc7d2123	-0.015449795
130	0xbd6be283	-0.057589065
131	0x3b77b885	0.0037799191
132	0xbd435702	-0.0476904
133	0xbd073ca6	-0.033016823
134	0xbccbda03	-0.02488423
135	0x3c2e907b	0.010654564
136	0xbcf38d6a	-0.029730517
137	0xbb74ce25	-0.0037354317
138	0x3c8dddab	0.017317614
139	0xbcbb5bf7	-0.022871
140	0x3cb034bc	0.02150952
141	0xbd5f47f6	-0.054511987
142	0xbd3a42d6	-0.045473896
143	0x3c0a6968	0.008447982
144	0xbd8585ce	-0.06519662
145	0x3c956ec0	0.018241286
146	0xbcf6dd26	-0.030134749
147	0xbcd0e6ab	-0.025500616
148	0xbce09a73	-0.027417397
149	0xbd64c167	-0.055848505
150	0xbd5f2f3f	-0.054488417
151	0xbd4904b5	-0.049076755
152	0xbd0579ec	-0.032586977
153	0xbcb539c6	-0.022122275
154	0x3b323ec4	0.0027198056
155	0x3b2a4026	0.0025978177
156	0xbd465e62	-0.048429854
157	0x3cb3ba98	0.02193956
158	0xbd3106a0	-0.04321921
159	0xbcbc72da	-0.023003984
160	0xbcbc8941	-0.023014667
161	0x3c6a4441	0.0142985
162	0xbaa9ed41	-0.0012964384
163	0xbd9b82c6	-0.075933024
164	0xbcaa68d6	-0.020801943
165	0xbd5a3f3b	-0.053282958
166	0x3d13ba45	0.036066312
167	0x3c810c38	0.015752897
168	0x3a913d67	0.0011080921
169	0xbd53e7a1	-0.05173457
170	0xbc2f4027	-0.010696447
171	0x3be10050	0.0068664923
172	0x3c64f8d6	0.013975343
173	0xbd5a1070	-0.053238332
174	0x3c5994de	0.013280122
175	0xbc88e74a	-0.01671185
176	0x3bf8074b	0.0075692288
177	0xbb09e7f8	-0.0021042805
178	0x3ca054ea	0.01957174
179	0xbd2f1820	-0.042747617
180	0xbbfe89b2	-0.0077678794
181	0xbc462074	-0.012092698
182	0xbbd50687	-0.0065010223
183	0xbd3dd32d	-0.04634397
184	0xbd5198e5	-0.051171202
185	0xbcff07a2	-0.03113157
186	0xbd1c3ad6	-0.038142048
187	0x3d309317	0.043109026
188	0x3c673aa0	0.014113098
189	0xbd2d0b3d	-0.042247046
190	0x3c579fb6	0.013160637
191	0xbd10844a	-0.03528241
192	0x3b505d9f	0.0031794084
193	0xbd2cf472	-0.04222531
194	0xbd5230bb	-0.051316004
195	0xbcfcc277	-0.030854447
196	0xbd0e5bd4	-0.034755543
197	0x3cb5134d	0.02210393
198	0x3d079640	0.033102274
199	0xbd655421	-0.055988435
200	0xbd430035	-0.04760762
201	0x3d2b8d14	0.04188259
202	0x3ca083d3	0.019594109
203	0xbce6b980	-0.028164625
204	0xbcb5d9e6	-0.022198629
205	0xbd4bfbe3	-0.049800765
206	0xbcc05ebe	-0.023482677
207	0xbd2c144c	-0.042011544
208	0xbce71da5	-0.028212378
209	0x3c48681b	0.012231852
210	0xbd24d5cb	-0.04024295
211	0x3c26e5f7	0.010186664
212	0xbd4e8b3d	-0.050425757
213	0x3b80ca56	0.0039303703
214	0xbd2838f2	-0.041069932
215	0xbc395f86	-0.0113142785
216	0xbccb9f8c	-0.024856351
217	0xb98cac00	-0.0002683103
218	0xbce74138	-0.02822934
219	0xbc3242cf	-0.010880186
220	0xbc985af1	-0.018598052
221	0xbbc274e5	-0.005934345
222	0xbd03e923	-0.03220476
223	0xbd640329	-0.055667076
224	0xbd05bf40	-0.032653093
225	0xbc00ee5e	-0.007869331
226	0xbd91a6e7	-0.07111912
227	0xbac29d62	-0.0014847929
228	0xbcd983aa	-0.02655204
229	0xbaf7d4c2	-0.0018908011
230	0xbd9145ac	-0.07093367
231	0xbd96fccf	-0.07372438
232	0xbb5741e1	-0.0032845663
233	0xbd84c49f	-0.06482815
234	0x3ca33b6d	0.019925797
235	0xbd8e6fd9	-0.06954927
236	0xbd24f86b	-0.040275972
237	0xbcef215c	-0.029190712
238	0xbd3e27be	-0.04642462
239	0x3c6f3da3	0.014602098
240	0xbcc86a56	-0.024464767
241	0xbd91365a	-0.07090445
242	0xbd082418	-0.033237547
243	0xbc52b8da	-0.012861455
244	0xbd5a9dae	-0.05337303
245	0xbd8665ba	-0.065623716
246	0xbd0f3f59	-0.034972522
247	0xbcd9e27c	-0.026597254
248	0xbd096a16	-0.033548437
249	0xbd7d09ea	-0.061777033
250	0xbd202c33	-0.03910465
251	0xb9b51f3a	-0.00034546276
252	0xbc92c736	-0.017917257
253	0xbd2edfcd	-0.0426939
254	0xbcf1d27e	-0.029519316
255	0xbd1ad614	-0.037801817

bias f4 [120]
0	0xbc0b5ad2	-0.00850554
1	0x3e5ea0eb	0.21741073
2	0x3f2dee84	0.6794207
3	0x3f6010f0	0.87525845
4	0xbe770266	-0.24122009
5	0x3f17ebe1	0.593443
6	0xbed81f28	-0.4221127
7	0x3f68e767	0.9097809
8	0xbd7062bd	-0.058687914
9	0xbd98bc69	-0.074578114
10	0x3e1c7edd	0.1528277
11	0xbf4291c2	-0.7600366
12	0x3e215003	0.15753178
13	0x3f7742c2	0.9658624
14	0xbdc35c9b	-0.095391475
15	0x3fcb68c4	1.5891347
16	0xbdf25bd6	-0.118339226
17	0xbcc3afde	-0.023887571
18	0x3f8a2b9b	1.0794557
19	0xbedd0ed0	-0.43175364
20	0x3fa36c72	1.276747
21	0xbec65f77	-0.3874471
22	0x3eb73f6e	0.3579058
23	0xbed7be97	-0.42137596
24	0x3f18fb6a	0.5975863
25	0xbe91a684	-0.28447354
26	0xbdc135fc	-0.09434125
27	0xbcfcbdde	-0.030852254
28	0xbe389580	-0.1802578
29	0xbda7a472	-0.08185662
30	0xbda03d16	-0.07824151
31	0x3f80f474	1.0074601
32	0x3e5dcd55	0.21660359
33	0x3f3a5b6a	0.72795737
34	0xbe159ca0	-0.14610529
35	0xbb8f0dc3	-0.004365654
36	0x3f570a62	0.8400022
37	0xbf00dfaa	-0.50341284
38	0x3e72fdc0	0.2372961
39	0xbd201a6d	-0.0390877
40	0x3eac9407	0.33706686
41	0xbba60de4	-0.005067574
42	0xbe252cbf	-0.1613035
43	0xbe51b4be	-0.20479104
44	0xbd9b35f2	-0.075786486
45	0xbe5590de	-0.20856044
46	0xbee74c7c	-0.4517554
47	0xbdc95140	-0.0982995
48	0xbdb254e6	-0.08707599
49	0x3c9ca810	0.019123107
50	0xbd08f582	-0.03343726
51	0x3ee702e3	0.4511939
52	0xbe9a0444	-0.3008138
53	0xbe8e9783	-0.2784997
54	0x3ea3fb62	0.32027727
55	0xbd39dbe7	-0.04537573
56	0x3f7300c4	0.94923043
57	0x3f29d51a	0.6634079
58	0xbecd5284	-0.40102017
59	0xbc6f670f	-0.014611973
60	0x3f4d60d2	0.8022586
61	0xbd543f81	-0.051818375
62	0xbc9c9d51	-0.019117983
63	0x3efba223	0.49147138
64	0xbf2c936c	-0.6741245
65	0x3f67c19f	0.9052982
66	0x3d588ba9	0.052867565
67	0xbcd9c68a	-0.026583929
68	0xbe896e4f	-0.2684197
69	0x3e8a33eb	0.26992735
70	0x3ddc14d7	0.107461624
71	0xbe067ed8	-0.13134325
72	0xbdaef19b	-0.08542176
73	0xbf37e3c2	-0.71831906
74	0xbe9a9e46	-0.30198878
75	0xbcb350b3	-0.021889066
76	0xbe30c655	-0.17263158
77	0xbd7eeda2	-0.062238343
78	0x3ec1e3b0	0.37869024
79	0xbe286b30	-0.16447139
80	0xbd8dfd06	-0.06933026
81	0xbd417f9e	-0.047240846
82	0xbe620184	-0.2207089
83	0x3f4d4981	0.80190283
84	0xbde2f30e	-0.11081515
85	0xbe3c52b4	-0.18390924
86	0x3d64c46b	0.05585138
87	0x3e5142bc	0.20435613
88	0xbe286dd9	-0.16448154
89	0x3e1abb36	0.15110478
90	0x3eb7fc6c	0.3593477
91	0x3c4b6d0d	0.012416136
92	0x3e6a3b11	0.22874095
93	0xbe0e68eb	-0.1390721
94	0x3f2b9c3a	0.6703526
95	0xbd919d84	-0.07110122
96	0xbd8f488f	-0.06996261
97	0xbea1faca	-0.3163665
98	0xbe8f4e82	-0.27989584
99	0xbd63ea44	-0.055643335
100	0xbef4cfc1	-0.47814754
101	0xbc62aee6	-0.013835644
102	0xbeb051af	-0.3443732
103	0x3e08fd08	0.13377774
104	0x3eb21c84	0.3478738
105	0xbe32897e	-0.17435262
106	0xbd79069f	-0.06079733
107	0xbc4305a6	-0.011903202
108	0xbebb8ba2	-0.3662997
109	0xbf0b9633	-0.5452606
110	0x3b931884	0.0044890065
111	0xbdde59bb	-0.108569585
112	0xbd07cd33	-0.033154678
113	0xbcba9225	-0.022774765
114	0x3f9e6592	1.2374747
115	0x3f3033a0	0.68828773
116	0x3ebf276c	0.37334764
117	0x3eb37377	0.3504903
118	0xbd4f8dd1	-0.050672356
119	0xbd2917f9	-0.041282628

weight f4 [84, 120]
0	0x3ceb4cbb	0.028723111
1	0x3e4025d5	0.18764432
2	0x3da0c1c6	0.07849459
3	0xbdada0c7	-0.084779315
4	0x3e3230d3	0.17401437
5	0x3ec10215	0.376969
6	0xbe80ceef	-0.25157878
7	0xbe2a0204	-0.16602331
8	0x3c7f5c00	0.015585899
9	0xbd9af05f	-0.075653784
10	0x3e91d24f	0.28480765
11	0xbeb857a1	-0.36004356
12	0xbea3b2ea	-0.31972438
13	0x3e881e1f	0.2658548
14	0xbdf39762	-0.11894108
15	0x3dbe2202	0.0928383
16	0x3e011f1a	0.1260952
17	0x3d42e07d	0.04757737
18	0x3df3f0b3	0.11911144
19	0x3e204dce	0.1565468
20	0x3ee27000	0.44226074
21	0xbcabb478	-0.020960078
22	0x3cdf122c	0.027230345
23	0x3e414d78	0.18877208
24	0x3dadfded	0.08495698
25	0xbecf0b99	-0.40438536
26	0x3c71c160	0.014755577
27	0x3cd6100f	0.026130704
28	0xbde29995	-0.1106445
29	0x3cae7933	0.021298027
30	0xbd2a63cb	-0.041599076
31	0x3e36e22b	0.17859714
32	0xbe4dda06	-0.201027
33	0x3e973946	0.29535884
34	0x3bd80cfe	0.0065933457
35	0xbd4e2110	-0.0503245
36	0xbd082e40	-0.033247232
37	0xbeb32edd	-0.3499669
38	0x3d4fb0bb	0.050705653
39	0xbcd7fa71	-0.026364537
40	0xbcd59201	-0.026070597
41	0x3c266e3a	0.010158116
42	0x3eac15b2	0.33610302
43	0xbed46b7a	-0.41488248
44	0x3d70ca5e	0.058786742
45	0xbe4518fa	-0.19247809
46	0xbe9e1f11	-0.30883077
47	0x3d3a64e5	0.045506377
48	0x3cb39401	0.02192116
49	0xbd195996	-0.03743895
50	0xbd8ac7be	-0.06776379
51	0xbd6f6291	-0.05844361
52	0xbdc2fa8f	-0.095204465
53	0x3efadc7a	0.48996335
54	0x3e8e31c1	0.27772334
55	0xbd28de00	-0.04122734
56	0xbe838a4f	-0.2569146
57	0x3eb9c8fb	0.36286148
58	0xbbf802cc	-0.007568693
59	0xbcf0d7b6	-0.029399734
60	0x3f23fa4f	0.64053816
61	0x3a9ddfbe	0.001204483
62	0xbcb94185	-0.02261425
63	0xbe7cd059	-0.24688853
64	0xbe309dbd	-0.17247672
65	0x3f093c86	0.53607976
66	0x3e5de712	0.21670178
67	0xbd869af2	-0.06572522
68	0x3e0553bb	0.13020222
69	0x3db1c69d	0.086804606
70	0xbdd69827	-0.104782395
71	0xbda5d243	-0.08096745
72	0x3c91458a	0.017733354
73	0xbe8592db	-0.26088604
74	0x3cd49c27	0.025953365
75	0x3c34f427	0.011044539
76	0xbd88782a	-0.066635445
77	0x39bd12f5	0.00036063013
78	0x3d8e1e2a	0.06939347
79	0xbc7dc9fd	-0.015490052
80	0xbcc058d1	-0.023479851
81	0xbd81ae93	-0.063321255
82	0xbdb1b359	-0.08676786
83	0x3ca49974	0.020092703
84	0x3d1231c3	0.035691988
85	0xbdd9e87b	-0.10640045
86	0x3e391aca	0.18076625
87	0x3e90612c	0.28199136
88	0x3ee48eef	0.446403
89	0x3dda9a53	0.10673966
90	0x3e5c33cc	0.21504134
91	0xbd28e08b	-0.041229766
92	0xbdb13951	-0.0865351
93	0x3d80839f	0.06275105
94	0x3ec9b853	0.3939844
95	0x3d6be343	0.05758978
96	0x3ec46ae3	0.38362798
97	0xbef06bbd	-0.46957198
98	0x3f0c5e4d	0.5483139
99	0x3bda391a	0.006659639
100	0x3e30dbdd	0.17271371
101	0xbd79c844	-0.060982004
102	0xbe6ae0ff	-0.22937392
103	0x3d8df8b2	0.069322005
104	0xbdda2628	-0.10651809
105	0xbc3da1de	-0.011574237
106	0xbdad1669	-0.0845154
107	0xbdf136a2	-0.117779985
108	0x3e064a88	0.13114369
109	0xbdb5bc43	-0.08873799
110	0x3d7e2f05	0.06205656
111	0x3d5020c3	0.050812494
112	0x3ddca7d1	0.10774196
113	0x3d348a55	0.044077236
114	0x3ea6d110	0.32581377
115	0x3c4202ae	0.011841459
116	0xbb52e6fc	-0.0032181134
117	0xbe08dff9	-0.13366689
118	0x3d6a6fd0	0.05723554
119	0xbd6bad44	-0.057538286
120	0xbc826c93	-0.015920913
121	0x3d0c520b	0.03425793
122	0x3f05e781	0.5230637
123	0xbd56c43e	-0.052433245
124	0x3e894afc	0.2681502
125	0x3e4257d8	0.18978822
126	0xbea930f4	-0.3304516
127	0xbd82b67c	-0.063824624
128	0x3ca87ded	0.020567859
129	0xbd9df642	-0.077129856
130	0x3e08f003	0.13372807
131	0x3eb30a78	0.34968925
132	0xbda896e5	-0.08231906
133	0x3d6db92d	0.058037926
134	0x3d90662c	0.07050738
135	0x3da44371	0.08020676
136	0xbda2ee8c	-0.079556555
137	0xbc3c955c	-0.011510219
138	0xbea2c5b1	-0.31791452
139	0x3e92892e	0.28620285
140	0x3ee66d6e	0.45005363
141	0xbc178f53	-0.00925048
142	0x3cb5e249	0.022202628
143	0xbdb0c124	-0.08630589
144	0xbe005f47	-0.12536345
145	0x3d359c3b	0.044338446
146	0xbbc2d412	-0.005945691
147	0x3b0b4d9a	0.002125597
148	0x3f3e805f	0.7441463
149	0x3d7450a5	0.05964722
150	0xbd921556	-0.07132976
151	0xbebfd0a2	-0.37463862
152	0xbe704c24	-0.23466545
153	0x3e1baced	0.15202685
154	0x3d1e2163	0.03860606
155	0xbd87321c	-0.066013545
156	0x3e452573	0.19252567
157	0x3ea457ac	0.32098138
158	0x3b5550ed	0.0032549456
159	0xbd656251	-0.056001965
160	0x3e853097	0.26013634
161	0x3b685534	0.0035451176
162	0x3ee7e623	0.45292768
163	0xbdd321d1	-0.10309184
164	0x3d431956	0.047631584
165	0x3d55ee27	0.052229073
166	0xbf083581	-0.5320664
167	0x3c081eb6	0.008308103
168	0xbd206b2d	-0.03916471
169	0x3da0a8a8	0.078446686
170	0xbd470457	-0.048588123
171	0xbe2750d5	-0.16339429
172	0xbe779f0a	-0.24181762
173	0x3daf8880	0.08570957
174	0x3c2fb7a5	0.010724937
175	0xbd60d082	-0.05488635
176	0x3defdfb1	0.117125876
177	0x3ea6d5e6	0.32585067
178	0x3e7e4a20	0.24832964
179	0x3ad6027f	0.0016327648
180	0xbe4d11d1	-0.20026328
181	0xbdb7ff34	-0.08984223
182	0xbd19f354	-0.03758557
183	0x3e243ea8	0.16039526
184	0xbd9d606b	-0.07684406
185	0xbe5a2e41	-0.21306707
186	0x3d4173e1	0.04722965
187	0xbd959eaf	-0.07305657
188	0x3e979241	0.2960377
189	0x3f1a53c2	0.60284054
190	0xbe303028	-0.1720587
191	0x3d122543	0.035680067
192	0xbc626aec	-0.0138194375
193	0xbe725762	-0.23666146
194	0xbe831576	-0.2560231
195	0xbcf0919b	-0.029366305
196	0x3ec1c3fc	0.37844837
197	0xbcc3bbb6	-0.023893218
198	0xbe7296e5	-0.23690374
199	0x3ef07488	0.46963906
200	0x3c20e81d	0.009820965
201	0x3cb83091	0.022484096
202	0x3e2a262b	0.16616122
203	0xbe235003	-0.15948491
204	0x3d923a32	0.07140006
205	0xbeb07b4a	-0.34469062
206	0xbeb2e3d9	-0.3493946
207	0xbe75bbbe	-0.23997399
208	0x3ebe5b32	0.37178952
209	0x3e790bad	0.2432086
210	0x3e2cf461	0.16890098
211	0xbd66c090	-0.056335986
212	0x3d2dd34d	0.04243784
213	0x3f1c347a	0.6101757
214	0x3eb64d65	0.35605922
215	0xbcf0ade7	-0.029379798
216	0xbe4014a9	-0.18757881
217	0xbde952e4	-0.11392763
218	0xbdc12867	-0.09431534
219	0x3ca9e440	0.02073872
220	0x3e57bb1b	0.21067469
221	0xbd5861a2	-0.052827485
222	0x3edf09d0	0.43562174
223	0xbe0c159b	-0.13680117
224	0xbee56a09	-0.4480746
225	0xbe5486c8	-0.2075454
226	0xbd86954b	-0.06571444
227	0x3e059357	0.13044487
228	0x3e84b45b	0.2591885
229	0x3ebfbb14	0.37447417
230	0xbd96795e	-0.07347368
231	0xbd21aa54	-0.03946908
232	0xbd567781	-0.05236006
233	0xba91d3ac	-0.0011125705
234	0x3edd8513	0.4326559
235	0x3ea819e5	0.32832256
236	0xbe8a8491	-0.27054265
237	0x3e116a07	0.14200602
238	0xbd0c754a	-0.034291543
239	0xbc91803a	-0.017761339
240	0xbc2c9550	-0.010533646
241	0x3dc4a847	0.09602409
242	0xbee26f7d	-0.44225684
243	0xbe950328	-0.2910397
244	0x3e20b475	0.15693839
245	0x3eaf4740	0.34234047
246	0xbec394aa	-0.3819936
247	0xbe475f10	-0.19469857
248	0x3d708f90	0.058730662
249	0xbdbc680f	-0.09199535
250	0x3d319fa4	0.043365136
251	0x3d266462	0.040623076
252	0x3d2624cd	0.04056244
253	0xbde94501	-0.113901146
254	0x3b25386d	0.0025210634
255	0xbe6175bc	-0.22017568

bias f4 [84]
0	0x3f4fd68e	0.8118676
1	0xbe1127ea	-0.14175382
2	0xbeba5a43	-0.3639699
3	0xbf0db5a7	-0.55355304
4	0x3ec70993	0.38874492
5	0xbdd8122b	-0.1055034
6	0xbe434dff	-0.19072722
7	0xbee52c35	-0.4476029
8	0xbebfd064	-0.37463677
9	0x3f73332c	0.9499996
10	0xbf23c9a8	-0.6397958
11	0xbf2ec570	-0.68270016
12	0xbf477146	-0.77907217
13	0xbe848f58	-0.25890613
14	0xbe2af60e	-0.16695425
15	0x3f795322	0.97392476
16	0x3f58a4c2	0.846264
17	0x3f7cd034	0.9875519
18	0xbe80347b	-0.2504004
19	0xbeaed79a	-0.34148866
20	0xbc66bd02	-0.014083149
21	0x3e72a08c	0.23694056
22	0xbe46887f	-0.19388007
23	0xbe908a08	-0.2823031
24	0x3ec82c08	0.39096093
25	0xbf2a12fc	-0.6643522
26	0xbd778749	-0.060431752
27	0xbf274be0	-0.6535015
28	0xbef76888	-0.4832194
29	0xbe18559a	-0.14876404
30	0xbf21eb3b	-0.6324956
31	0xbe38e198	-0.18054807
32	0xbe6d592f	-0.23178552
33	0x3f1c8a5f	0.6114864
34	0x3ef05656	0.4694087
35	0xbf707f7e	-0.9394454
36	0xbea7aff5	-0.32751432
37	0xbebcf12f	-0.36902758
38	0x3f3f8423	0.74811
39	0x3e98fdac	0.29881036
40	0xbdff1998	-0.124560535
41	0xbe9ac01c	-0.30224693
42	0xbf3e3dfd	-0.74313337
43	0x3f8469cb	1.0344785
44	0xbd71a076	-0.058990918
45	0x3ec33f03	0.38134012
46	0xbf10deeb	-0.56590146
47	0xbf264624	-0.64950776
48	0x3de23ef0	0.110471606
49	0xbd8a248a	-0.067452505
50	0xbe7132d9	-0.23554553
51	0x3fc83183	1.564011
52	0xbe3fe55b	-0.18739836
53	0x3fa37d9f	1.2772712
54	0xbe53e177	-0.20691477
55	0x3f2bf2f5	0.671676
56	0xbf2030aa	-0.62574255
57	0x3ea99e62	0.3312865
58	0xbed6397d	-0.41840735
59	0xbf3bd32e	-0.7336911
60	0xbe687932	-0.22702482
61	0xbec3a1f4	-0.38209498
62	0xbf2f69b6	-0.6852068
63	0x3fdc08ca	1.7190182
64	0x3f86646e	1.0499399
65	0xbe09b8c4	-0.13449389
66	0x3f603f75	0.8759683
67	0x3f3bbdf2	0.7333671
68	0xbe27856f	-0.16359495
69	0xbdbe217a	-0.09283729
70	0x3e58b00c	0.21160907
71	0xbeaac1d9	-0.3335102
72	0xbf211b52	-0.6293231
73	0x3f16b957	0.58876556
74	0x3ec5e706	0.3865282
75	0xbe9128f1	-0.28351548
76	0xbe18995b	-0.1490225
77	0xbf080b71	-0.5314246
78	0x3fa7472f	1.3068599
79	0x3ed548e5	0.41657177
80	0x3f8166bb	1.0109476
81	0x3dc6b34b	0.09702166
82	0x3cd291bd	0.025704259
83	0xbf20c8df	-0.62806505

weight f4 [10, 84]
0	0xbeeca0a5	-0.46216312
1	0xbf2e9648	-0.6819806
2	0xbf678a54	-0.90445447
3	0xbf2ba018	-0.6704116
4	0xbec63e47	-0.3871939
5	0xbd872581	-0.0659895
6	0x3a5bd7dd	0.0008386353
7	0xbf62ba6c	-0.8856571
8	0xbe578f76	-0.2105082
9	0xbe04d120	-0.129704
10	0xbf14e4a9	-0.5816141
11	0xbee1f0ad	-0.44128934
12	0xbfe6a8c0	-1.8020248
13	0xbd8ff559	-0.07029218
14	0xbe0cd354	-0.1375249
15	0x3bd09bf4	0.0063662473
16	0xbcaf9791	-0.021434577
17	0xbe474100	-0.1945839
18	0xbef1a35e	-0.47194952
19	0xbd835293	-0.06412234
20	0xbcd33c2e	-0.025785532
21	0xbfa95016	-1.3227565
22	0xbea43310	-0.32070208
23	0xbf154522	-0.58308613
24	0xbe4bcea4	-0.19903046
25	0xbf394f9f	-0.7238712
26	0xbec6d8a5	-0.38837162
27	0xbe8c83ae	-0.27444214
28	0xbf25095f	-0.64467424
29	0xbd81f649	-0.06345803
30	0xbef1de59	-0.4723995
31	0xbd936800	-0.07197571
32	0xbe00b373	-0.12568454
33	0xbde85eed	-0.11346231
34	0x3c81379f	0.015773593
35	0xbf99d43f	-1.2017897
36	0xbf3bb3ce	-0.73321235
37	0xbf7214d1	-0.94563013
38	0xbe0b1ba7	-0.13584767
39	0xbf05356b	-0.52034634
40	0xbc0b1442	-0.008488717
41	0xbf98b816	-1.1931179
42	0xbf811acf	-1.0086306
43	0xba2ca072	-0.00065851875
44	0xbd0fd757	-0.035117473
45	0x3c3628ec	0.011118155
46	0xbf0229ef	-0.50845236
47	0xbedff615	-0.43742433
48	0xbd187f13	-0.037230562
49	0xbf2b91e3	-0.6701948
50	0x3df5f666	0.120098874
51	0xbed93c5a	-0.42428857
52	0xbec2d549	-0.3805335
53	0xbc839a3f	-0.016064761
54	0xbd658e71	-0.056044046
55	0xbdea0b86	-0.11427979
56	0xbf1b3a9a	-0.60636294
57	0xbe2f3c9a	-0.17112961
58	0xbf68631d	-0.90776235
59	0xbf42d00b	-0.760987
60	0xbec0ba8a	-0.37642318
61	0xbfa3a1e5	-1.2783781
62	0xbec1f62f	-0.37883136
63	0xbe8e143a	-0.27749807
64	0x3d787b11	0.06066424
65	0xbe1044ee	-0.14088795
66	0xbe2b565b	-0.16732161
67	0xbd3a6387	-0.045505073
68	0xbec979cd	-0.3935074
69	0xbd019348	-0.0316346
70	0xbd8f831c	-0.07007429
71	0xbedb7586	-0.428631
72	0xbee654e9	-0.44986656
73	0xbe8e93c1	-0.27847102
74	0xbd2ad128	-0.041703373
75	0xbe83efbd	-0.25768843
76	0xbeb39436	-0.35074013
77	0xbfabbc54	-1.3416848
78	0xbe57ee8a	-0.21087089
79	0x3d9f9a8b	0.077931486
80	0xbe73f781	-0.23824884
81	0xbf0ba76a	-0.5455233
82	0xbf3bacfc	-0.7331083
83	0xbf837c1e	-1.0272253
84	0xbe52b24a	-0.20575824
85	0xbecf3755	-0.40471902
86	0xbeac7a5f	-0.33687112
87	0xbf1aa88c	-0.6041343
88	0xbe8dd1a8	-0.27699018
89	0xbdd0e8ad	-0.102006294
90	0xbdd3c659	-0.10340566
91	0xbf4a478d	-0.7901543
92	0xbeee2f86	-0.46520633
93	0x3d45f845	0.04833247
94	0xbf276130	-0.6538267
95	0xbf1791c1	-0.5920678
96	0xbf1fb2e4	-0.6238234
97	0xbe7bceb2	-0.24590567
98	0xbe89af39	-0.26891497
99	0x3cad06c4	0.02112139
100	0xbe654656	-0.22390112
101	0xbca99985	-0.020703087
102	0xbf3f9c3a	-0.7484776
103	0xbd2d8bb1	-0.04236955
104	0xbea2da2b	-0.31807074
105	0xbfb2f177	-1.3979939
106	0xbf14b756	-0.5809225
107	0xbe9d60fb	-0.30738053
108	0xbca884e8	-0.020571187
109	0xbfafc36d	-1.3731514
110	0xbea7f47d	-0.32803717
111	0xbf4b7a7e	-0.79483783
112	0xbf1d124f	-0.6135606
113	0xbde320f9	-0.110902734
114	0xbee3bd57	-0.44480392
115	0xbdd2abd6	-0.10286681
116	0xbefe5e3b	-0.49681267
117	0xbea4aa8d	-0.3216137
118	0xbe0f6f3d	-0.14007278
119	0xbedaf7ce	-0.42767185
120	0xbe9956fb	-0.29949173
121	0xbeec46db	-0.46147808
122	0xbdf9fe4f	-0.12206709
123	0xbea1c0e4	-0.31592476
124	0xbda5982c	-0.08085665
125	0xbf9f5582	-1.244797
126	0xbf943148	-1.157754
127	0xbe9578c1	-0.2919369
128	0xbd7367a9	-0.05942503
129	0x3def9aef	0.11699473
130	0xbea75b14	-0.32686675
131	0xbf11242c	-0.5669582
132	0xbcf8eb8c	-0.030385755
133	0xbf5ff8ef	-0.8748922
134	0xbd69a570	-0.05704254
135	0xbeaede44	-0.3415395
136	0xbde4c884	-0.11171058
137	0xbe457b7c	-0.19285387
138	0xbcf5da5f	-0.030011354
139	0xbe14f82c	-0.14547795
140	0xbf3748e9	-0.7159563
141	0xbe532218	-0.20618474
142	0xbe8db324	-0.27675736
143	0xbf1c2641	-0.6099587
144	0xbe85b007	-0.2611086
145	0xbf8804d0	-1.0626469
146	0xbe0d4526	-0.1379591
147	0x3bbf46e6	0.005837309
148	0xbe5ac716	-0.21365008
149	0xbe1eb91d	-0.15500303
150	0xbe7cf228	-0.2470175
151	0x3ce98b3f	0.02850878
152	0xbf87aa84	-1.0598912
153	0xbe5e3080	-0.21698189
154	0xbee560c2	-0.44800383
155	0xbde34c9e	-0.11098598
156	0xbeaab738	-0.3334291
157	0xbddee3ce	-0.10883294
158	0xbe29fb41	-0.16599752
159	0xbe4dd764	-0.20101696
160	0xbe8d57c8	-0.27606034
161	0xbf98aee0	-1.1928368
162	0xbe04346f	-0.12910627
163	0xbe9eeab3	-0.31038436
164	0xbc9d5e68	-0.019210055
165	0xbe3c153e	-0.18367478
166	0xbea24384	-0.31692135
167	0xbf5bf8fc	-0.85926795
168	0xbee6fcaa	-0.45114642
169	0xbe43ce76	-0.19121727
170	0xbea628a9	-0.32452896
171	0xbf10b51d	-0.56526357
172	0xbe81c90d	-0.25348702
173	0xbe5f91fc	-0.21833032
174	0xbd41af9b	-0.04728661
175	0xbf8ccb4b	-1.099954
176	0xbe874bf9	-0.2642515
177	0xbe85f17f	-0.2616081
178	0xbf8bd49c	-1.0924258
179	0xbf36e810	-0.7144785
180	0xbfa6ab42	-1.3021014
181	0x3cbf97eb	0.02338787
182	0xbc0c8d09	-0.008578547
183	0xbea3a0cb	-0.31958613
184	0x3c70a347	0.014687366
185	0xbe7b5560	-0.24544287
186	0xbf49624e	-0.78665626
187	0xbea4807e	-0.32129282
188	0xbf02d2bc	-0.51102805
189	0xbe83d85b	-0.25751004
190	0xbf669f68	-0.90086985
191	0xbf35b51b	-0.7097947
192	0xbe64bea6	-0.22338352
193	0xbf35793a	-0.708881
194	0xbf073ded	-0.52828866
195	0xbb9935aa	-0.0046755867
196	0xbf6e15fe	-0.9300231
197	0xbdcbdeeb	-0.099546276
198	0xbf527f3d	-0.822254
199	0xbc8b8c49	-0.017034667
200	0xbf7204f5	-0.94538814
201	0xbeabdb76	-0.33565873
202	0xbebba2c0	-0.36647606
203	0xbf57e14b	-0.84328145
204	0xbf8d0ca4	-1.1019483
205	0xbf45adf6	-0.7721857
206	0x3c55801d	0.013031033
207	0xbef6a848	-0.48175263
208	0xbee79d5d	-0.45237246
209	0xbf100b5c	-0.56267333
210	0xbf30462b	-0.6885707
211	0xbdaa4680	-0.08314228
212	0xbc3ffe13	-0.011718291
213	0xbd7cd997	-0.061730947
214	0xbed62ae7	-0.41829607
215	0xbf887169	-1.065961
216	0xbdfbe668	-0.12299806
217	0xbf0bfd9e	-0.54683864
218	0x3db03bce	0.08605157
219	0xbda95cbd	-0.082696415
220	0xbf3b5bff	-0.7318725
221	0x3cdeba39	0.027188407
222	0xbd4807c7	-0.048835542
223	0xbe1c0908	-0.1523782
224	0xbf3da806	-0.7408451
225	0x3e0d1c77	0.1378039
226	0xbf5873f1	-0.8455191
227	0xbf09ca21	-0.5382405
228	0xbe1b706f	-0.15179609
229	0xbf82d23e	-1.0220411
230	0xbf1becce	-0.6090821
231	0xbdc60da6	-0.09670572
232	0xbe198dff	-0.14995573
233	0xbe136612	-0.14394405
234	0xbe28e4f9	-0.16493596
235	0xbd44f01e	-0.048080556
236	0xbf84478f	-1.0334338
237	0xbe2a297b	-0.16617386
238	0xbc7e8c9f	-0.015536456
239	0xbe9af2b4	-0.30263293
240	0xbece468b	-0.40288195
241	0xbd6d346d	-0.057911325
242	0xbdeb9d29	-0.11504585
243	0xbe31533d	-0.17316909
244	0xbe6a57d2	-0.22885063
245	0xbf2b6bc6	-0.66961324
246	0x3c36f2eb	0.011166315
247	0xbcc3dccc	-0.023908995
248	0xbe33e2e5	-0.17567022
249	0xbce22b06	-0.027608406
250	0xbec1b64c	-0.37834394
251	0xbf8bfa59	-1.0935775
252	0xbe5292cb	-0.2056381
253	0xbee7f29a	-0.45302278
254	0xbe91a54d	-0.28446427
255	0xbf18cd4c	-0.5968826

bias f4 [10]
0	0xbeac2cc3	-0.336279
1	0xbe4561e8	-0.1927563
2	0xbf05522b	-0.52078503
3	0x3e473d74	0.19457036
4	0x3f132703	0.574814
5	0xbe9c987d	-0.3058509
6	0x3eb73b95	0.35787645
7	0xbe5c8078	-0.21533382
8	0x3f045b6e	0.5170201
9	0xbdc93152	-0.0982386
