model_sgd.pth (torch, 255252 bytes, 10 tensors)

weight f4 [6, 3, 5, 5]
0	0xbcbdce3c	-0.02316963
1	0x3db01bd0	0.08599055
2	0x3d852883	0.065018676
3	0x3da7fa6e	0.082020625
4	0x3cd001ad	0.025391424
5	0xbe3c0155	-0.18359883
6	0xbf09cf0a	-0.5383154
7	0xbecfe5d5	-0.40605035
8	0xbe249946	-0.16074094
9	0xbd8e9a22	-0.06962992
10	0x3d8e8594	0.06959072
11	0xbed25e26	-0.41087455
12	0xbf201d55	-0.6254476
13	0xbea4e434	-0.32205355
14	0xbe8c2e2f	-0.27378985
15	0x3e9e30db	0.3089665
16	0x3ec5e2d2	0.38649613
17	0x3ead5c77	0.33859608
18	0x3be2d8e6	0.006922829
19	0xbe7f90cf	-0.24957584
20	0x3da76331	0.08173216
21	0x3da4ffb9	0.08056588
22	0x3e4cbab5	0.19993098
23	0x3eda4293	0.42628917
24	0x3ed47383	0.41494378
25	0xbe3ecfaa	-0.18633905
26	0xbc487fdb	-0.012237514
27	0xbc4730fd	-0.012157676
28	0x3d754f12	0.05988986
29	0x3db8a611	0.0901605
30	0xbe4a5e1d	-0.19762464
31	0xbea63744	-0.3246404
32	0xbece30fe	-0.40271753
33	0xbdd4a713	-0.103834294
34	0x3e39e069	0.18152012
35	0x3b42d2f2	0.0029727784
36	0xbe6c5deb	-0.23082702
37	0xbeb8bfaa	-0.36083728
38	0xbdc61009	-0.09671027
39	0xbdf4a671	-0.11945809
40	0x3e442f6d	0.19158716
41	0x3ebc30b7	0.36755916
42	0x3e8f5f10	0.28002214
43	0x3dab21d4	0.083560616
44	0xbe260b83	-0.16215329
45	0xbda3605c	-0.079773635
46	0x3dd14778	0.1021871
47	0x3dd1a716	0.10236947
48	0x3e8c73f0	0.27432203
49	0x3e186f4b	0.14886205
50	0x3c3d2086	0.011543399
51	0xbe86f24d	-0.26356736
52	0xbd339cad	-0.04385059
53	0xbde5f1ff	-0.11227798
54	0xbd99b24b	-0.0750471
55	0xbd9b913c	-0.07596061
56	0xbeda5998	-0.4264648
57	0xbed5423e	-0.416521
58	0xbd5d4f2d	-0.054030586
59	0x3e0ad420	0.13557482
60	0x3e896584	0.26835263
61	0xbc04f670	-0.008115396
62	0xbea3dc7f	-0.32004163
63	0xbe17ff5d	-0.14843507
64	0xbc652a2a	-0.0139871035
65	0x3e98ee12	0.29869133
66	0x3f24987f	0.6429519
67	0x3ecb636b	0.39724287
68	0x3dc6137a	0.096716836
69	0x3d15d9c7	0.03658464
70	0x3e81502f	0.25256488
71	0x3eb4cf36	0.3531434
72	0x3ec385a4	0.38187897
73	0x3e908b1d	0.28231135
74	0x3e55ba05	0.20871742
75	0x3ebcc98f	0.36872527
76	0xbe5ce0bf	-0.21570109
77	0xbe5582bd	-0.20850654
78	0xbec14366	-0.37746733
79	0xbd4741af	-0.048646625
80	0x3e396ba7	0.18107472
81	0xbd02af77	-0.031905618
82	0x3eea84a6	0.45804328
83	0x3e758295	0.23975594
84	0x3c0a4c6e	0.008441074
85	0x3d9bc8cb	0.076066576
86	0x3f242561	0.64119536
87	0x3f860b2d	1.047216
88	0x3f38a91f	0.7213306
89	0x3e178cbb	0.14799778
90	0xbebb2ac5	-0.36556068
91	0xbf1a50ea	-0.60279715
92	0xbf5c45df	-0.86044115
93	0xbf899116	-1.0747402
94	0xbebbfc45	-0.36715904
95	0x3d94fd0b	0.072748266
96	0xbeac748c	-0.33682668
97	0xbe3dc915	-0.18533738
98	0xbd9b4ab4	-0.07582608
99	0x3e6963ca	0.22791973
100	0x3e8135b7	0.25236294
101	0xbefd1dd4	-0.4943682
102	0xbec603e0	-0.3867483
103	0xbeb517f4	-0.35369837
104	0x3e62ad5b	0.22136442
105	0x3e3db1b4	0.1852482
106	0xbdbcc240	-0.09216738
107	0x3f133258	0.57498693
108	0x3ef7abd1	0.48373273
109	0x3e17c514	0.14821273
110	0x3e6f4016	0.2336429
111	0x3f56ac15	0.83856326
112	0x3fbd43da	1.4786332
113	0x3f556e23	0.8337118
114	0x3d876063	0.06610181
115	0xbe6ab65e	-0.2292113
116	0xbef05292	-0.46937996
117	0xbf45e377	-0.7730021
118	0xbf8acb28	-1.0843248
119	0xbef44a58	-0.4771297
120	0xbdb76df4	-0.08956519
121	0xbe85c022	-0.26123148
122	0xbeaca4af	-0.33719394
123	0xbebc3b86	-0.36764163
124	0xbcaf58ed	-0.021404708
125	0x3e44520d	0.19171925
126	0xbf1048a6	-0.5636085
127	0xbe8e4951	-0.2779031
128	0xbe9ad3b9	-0.30239657
129	0x3e02a9c0	0.12760067
130	0xbd5fd2c4	-0.05464436
131	0xbefb7ea0	-0.49120045
132	0xbdbb5da3	-0.09148719
133	0x3de24dc5	0.110499896
134	0x3c7dcfd2	0.015491443
135	0x3e7837d1	0.24240042
136	0x3f218680	0.63095856
137	0x3f81c5de	1.0138509
138	0x3f286582	0.6577989
139	0x3e1e18fb	0.15439217
140	0xbd92e7f8	-0.07173151
141	0xbe1ab256	-0.15107092
142	0xbf159c79	-0.58441883
143	0xbf46dc6e	-0.776801
144	0xbe107e4c	-0.14110678
145	0x3d817911	0.0632192
146	0x3d713a03	0.058893215
147	0x3d6012ae	0.054705314
148	0x3e2b3c79	0.16722287
149	0x3ec1a2be	0.37819475
150	0xbea588a1	-0.32330802
151	0xbe46c389	-0.19410528
152	0x3edc0f7c	0.42980564
153	0xbf7d64fa	-0.98982203
154	0xbf0c8195	-0.54885226
155	0x3dbeaef1	0.09310711
156	0x3ea77b21	0.32711127
157	0xbf2ad72a	-0.66734564
158	0xbf27251d	-0.65291005
159	0x3f6049fb	0.87612885
160	0x3e119f76	0.14220986
161	0xbc65dac1	-0.014029206
162	0xbedb0f5d	-0.4278516
163	0x3f08dbef	0.5346059
164	0x3eeadeee	0.45873207
165	0x3e04a932	0.12955168
166	0x3ca12879	0.01967262
167	0x3ea45ea7	0.32103464
168	0x3f2cfb3e	0.67570865
169	0xbe93c6d0	-0.2886262
170	0x3f33566e	0.70053756
171	0x3e7cd67b	0.24691193
172	0x3ea92d8d	0.33042565
173	0x3dddaee9	0.10824377
174	0xbe0c7b6d	-0.13718958
175	0x3e03f3cd	0.12885971
176	0x3e4e449a	0.20143357
177	0x3f4655b5	0.7747453
178	0xbf121e6e	-0.5707768
179	0x3d339834	0.043846324
180	0x3ed2133c	0.410303
181	0x3ecf2402	0.4045716
182	0xbecc3612	-0.39885002
183	0xbef8e897	-0.48614952
184	0x3f90eee1	1.13229
185	0x3d91e605	0.07123951
186	0xbded3ed4	-0.11584249
187	0xbf1bb6d6	-0.6082586
188	0x3f011ba2	0.5043279
189	0x3f053c73	0.52045363
190	0xbe1842be	-0.1486921
191	0x3ce945d4	0.02847568
192	0x3eea2556	0.4573161
193	0x3f0a6a69	0.5406862
194	0xbed5f8f8	-0.4179151
195	0x3d6726e3	0.05643357
196	0xbd808c0a	-0.0627671
197	0xbc699c31	-0.01425843
198	0x3cba6a37	0.022755725
199	0xbddf0af3	-0.1089076
200	0xbeca07e3	-0.39459142
201	0xbdf75e3e	-0.12078522
202	0x3ee8e61b	0.45488057
203	0xbf6c16aa	-0.9222208
204	0xbe9070e9	-0.28211144
205	0x3a8ae289	0.0010596077
206	0x3da10688	0.07862574
207	0xbf4f9fb5	-0.8110307
208	0xbf47f577	-0.78108925
209	0x3f54f835	0.83191234
210	0xbe9d8741	-0.30767253
211	0xbe4b7e04	-0.1987229
212	0xbf3f8b8f	-0.74822325
213	0x3ebd8567	0.3701584
214	0x3ee4c881	0.44684222
215	0xbf084930	-0.53236675
216	0xbeaf4b43	-0.34237108
217	0x3e81d11d	0.25354853
218	0x3ecd6171	0.40113404
219	0xbe757737	-0.23971258
220	0xbec79396	-0.38979787
221	0xbe16e121	-0.14734317
222	0xbe0c23e5	-0.13685568
223	0xbda30dad	-0.07961593
224	0x3e342dd2	0.17595604
225	0xbdf062f3	-0.11737623
226	0x3f4f9137	0.81080955
227	0x3e218848	0.15774643
228	0x3ec98c34	0.3936478
229	0x3e5e0ea6	0.21685275
230	0xbe17ef51	-0.14837386
231	0x3f7724a2	0.9654027
232	0xbf123825	-0.5711692
233	0xbe0af48b	-0.13569848
234	0xbd9d59b4	-0.07683125
235	0x3e7aab55	0.2447942
236	0x3f33ad30	0.7018614
237	0xbfa0a02e	-1.2548883
238	0x3d7cdef4	0.061736062
239	0x3e115e32	0.14196089
240	0x3ebbabb6	0.36654443
241	0x3e5df3f7	0.21675096
242	0xbf9936f3	-1.1969894
243	0x3f032b52	0.51237977
244	0xbdca5933	-0.09880295
245	0x3e08e0d3	0.13367014
246	0xbe17fbc7	-0.14842139
247	0xbec83e97	-0.39110252
248	0x3e940c68	0.28915715
249	0xbe8ab5b6	-0.2709176
250	0xbd977fe5	-0.07397441
251	0x3e58be76	0.21166405
252	0xbf416488	-0.75544024
253	0xbead364e	-0.33830494
254	0xbe742015	-0.23840363
255	0x3e43039f	0.1904435

bias f4 [6]
0	0xbf3a49f6	-0.72769105
1	0xbf5c43a6	-0.86040723
2	0xbe85080b	-0.259827
3	0xbeb7f350	-0.3592782
4	0xbf5cc26a	-0.8623415
5	0xbf063d19	-0.5243698

weight f4 [16, 6, 5, 5]
0	0x3cd593d2	0.026071463
1	0xbe808cf7	-0.25107548
2	0xbb605908	-0.0034232754
3	0x3e4343bc	0.19068807
4	0x3e85a723	0.26104078
5	0xbd9638f6	-0.07335083
6	0xbe7d951b	-0.2476391
7	0xbe72f890	-0.23727632
8	0x3e037407	0.1283723
9	0x3d94e19e	0.072695956
10	0xbda0700d	-0.07833872
11	0xbea62da0	-0.32456684
12	0xbdf1c1e2	-0.11804558
13	0x3d9de001	0.07708741
14	0x3e3c48c3	0.18387131
15	0x3dab1b17	0.08354776
16	0xbd640323	-0.055667054
17	0xbd17af70	-0.037032545
18	0x3d9d4b0e	0.07680331
19	0x3e533a8f	0.20627807
20	0xbdd0768b	-0.1017886
21	0xbe6a0937	-0.22855078
22	0x3e3016ef	0.17196248
23	0x3e72cd3a	0.237111
24	0x3e801258	0.25013995
25	0xbcffa634	-0.031207182
26	0xbe9e4b64	-0.30916893
27	0xbdaad40c	-0.08341226
28	0x3e70fe0d	0.23534413
29	0x3ea8c31e	0.32961363
30	0xbdbf80de	-0.09350751
31	0xbed6940d	-0.4190983
32	0xbe7968b5	-0.24356349
33	0x3d1d79a4	0.038446084
34	0x3e2b0846	0.16702375
35	0xbedba984	-0.42902768
36	0xbeed6395	-0.46365038
37	0xbd374201	-0.04474068
38	0x3dc13382	0.094336525
39	0x3e8e018b	0.27735552
40	0xbe9530a2	-0.29138666
41	0xbdf9db11	-0.12199987
42	0x3dd86997	0.10567015
43	0x3e42c084	0.19018751
44	0x3e978904	0.29596722
45	0xbeb9aa8c	-0.3626293
46	0xbe2adc8d	-0.16685696
47	0xbe7575a4	-0.23970658
48	0x3b9885aa	0.004654606
49	0xbe71aee2	-0.23601869
50	0xbe021718	-0.12704122
51	0xbc8fd87b	-0.01755928
52	0xbdeaa089	-0.11456401
53	0xbdd18d1c	-0.102319926
54	0xbd62a857	-0.055336323
55	0xbdc5de3a	-0.09661527
56	0x3d010280	0.031496525
57	0x3d385b79	0.04500911
58	0xbbc69a4e	-0.006060875
59	0x3dc3fb77	0.095694475
60	0xbdfa8371	-0.12232102
61	0xbe3af33b	-0.18256848
62	0xbd9699ed	-0.07353578
63	0xbd732872	-0.059364744
64	0x3e0284b9	0.12745942
65	0xbd7f8aff	-0.062388416
66	0xbe87eeed	-0.26549473
67	0xbe158e8b	-0.14605157
68	0xbd3cc81f	-0.046089288
69	0x3d0a3930	0.033745944
70	0x3d91ed1f	0.071253054
71	0x3cb2c5b8	0.021822795
72	0x3d37878c	0.044807002
73	0x3e22aacd	0.15885468
74	0xbda3fdd9	-0.08007402
75	0x3ee909ca	0.4551528
76	0x3e432df1	0.19060494
77	0xbde38730	-0.11109769
78	0xbec06df3	-0.37583885
79	0xbed7b40b	-0.4212955
80	0x3ea97d02	0.33103186
81	0x3e8da03c	0.27661312
82	0xbd88a383	-0.066718124
83	0xbf350a88	-0.70719194
84	0xbf16ba99	-0.58878475
85	0x3ed101a8	0.40821576
86	0x3e8f9f46	0.28051203
87	0xbe37086d	-0.17874308
88	0xbf22e5cd	-0.636319
89	0xbf0ff09f	-0.56226534
90	0x3e93b17d	0.2884635
91	0x3efd0957	0.49421188
92	0x3d9a981c	0.07548544
93	0xbedb3ed0	-0.4282136
94	0xbf0e3121	-0.55543715
95	0x3e8fb075	0.28064314
96	0x3ed2a440	0.41140938
97	0x3e6bec83	0.23039441
98	0xbebcc769	-0.36870888
99	0xbf0a726c	-0.54080844
100	0x3f0f6f51	0.5602923
101	0x3eb33ebf	0.3500881
102	0x3c7a18a5	0.015264665
103	0xbd8a506e	-0.06753622
104	0xbea94825	-0.33062854
105	0x3e80e903	0.25177774
106	0x3eb1e68f	0.34746215
107	0xbe6d70d3	-0.2318757
108	0xbe97c775	-0.2964436
109	0xbee488f1	-0.44635728
110	0x3d921980	0.0713377
111	0x3e4523e0	0.19251966
112	0x3da15a32	0.078785315
113	0xbeb1eb24	-0.3474971
114	0xbeeb7a32	-0.45991665
115	0x3d82758f	0.06370079
116	0xbd80c285	-0.06287102
117	0xbc96ac7d	-0.018392796
118	0xbebe92a2	-0.37221247
119	0xbe91eae6	-0.28499526
120	0x3e825f9b	0.25463566
121	0x3c71a04d	0.014747691
122	0x3b846454	0.0040402804
123	0xbe869abb	-0.26289925
124	0xbeda34de	-0.4261846
125	0xbdcb80b6	-0.09936659
126	0x3d024028	0.031799465
127	0x3e1fd552	0.15608719
128	0xbdcec410	-0.1009599
129	0xbe1b84ee	-0.15187427
130	0x3dcd89c6	0.10036044
131	0x3d267a35	0.04064389
132	0x3c07e7b8	0.008294992
133	0x3dc59421	0.09647394
134	0xbe27a05f	-0.1636977
135	0x3e7f152a	0.24910417
136	0xbc723d5c	-0.014785137
137	0xbc3e116d	-0.011600834
138	0xbd1778f0	-0.03698057
139	0xbd67f180	-0.056626797
140	0x3ec27fc7	0.3798811
141	0xbd1445bc	-0.036199316
142	0xbe207a9f	-0.15671776
143	0x3d31cd4f	0.04340869
144	0xbd2b7f95	-0.04186972
145	0x3ea0154e	0.31266254
146	0xbd1b846a	-0.037968077
147	0x3d26476c	0.040595457
148	0xbd44974f	-0.04799586
149	0xbd956315	-0.07294289
150	0xbe5620ef	-0.20911
151	0xbe68abc3	-0.22721772
152	0xbe439b9f	-0.19102333
153	0xbe545dc6	-0.20738897
154	0xbda6ca32	-0.081440344
155	0xbea24227	-0.31691095
156	0xbe9613c3	-0.29311952
157	0xbe40b681	-0.1881962
158	0xbebd9970	-0.37031126
159	0xbe64fe8e	-0.2236273
160	0x3dbac515	0.09119622
161	0xbdd93316	-0.10605447
162	0xbeafa888	-0.34308267
163	0xbecf8e6b	-0.40538344
164	0xbe106c67	-0.14103852
165	0x3d4224e4	0.047398463
166	0x3e15aca6	0.14616641
167	0x3e05ce87	0.13067065
168	0xbdb61964	-0.088915616
169	0xbe51255a	-0.20424405
170	0xbe9ab83f	-0.30218694
171	0xbd0c2037	-0.03421041
172	0x3e712d88	0.23552525
173	0x3ea31377	0.31850788
174	0x3e65e6e8	0.22451365
175	0xbde0c5b7	-0.10975211
176	0x3cd42470	0.025896281
177	0xbdce64e6	-0.100778386
178	0x3d80c19e	0.062869295
179	0x3df81444	0.1211324
180	0xbe4369f6	-0.1908339
181	0xbdf05cd8	-0.117364585
182	0x3caddccb	0.021223446
183	0xbda2a7a9	-0.07942135
184	0x3e871f6c	0.2639116
185	0xbaa77982	-0.0012777301
186	0xbd7de7ff	-0.061988827
187	0x3e67e285	0.22645004
188	0xbd8d4910	-0.06898701
189	0xbcfd735a	-0.030938793
190	0xbe104e25	-0.1409231
191	0x3d25e400	0.04050064
192	0x3eee7690	0.4657483
193	0x3dd00aa1	0.10158277
194	0x3e7f8113	0.24951582
195	0xbea1c24b	-0.31593546
196	0xbe427965	-0.18991621
197	0x3e5bddc1	0.21471311
198	0x3d876c68	0.06612474
199	0xbe3ecb05	-0.18632133
200	0xbdc3fb28	-0.09569389
201	0xbe387990	-0.18015122
202	0xbec288d4	-0.37995017
203	0xbea765ac	-0.32694757
204	0xbe41fbaa	-0.18943658
205	0xbeada004	-0.33911145
206	0x3dca2dc5	0.09872011
207	0xbe03afd5	-0.12860043
208	0x3cc7c00d	0.02438357
209	0xbdccc542	-0.099985614
210	0xbe81ae7b	-0.2532843
211	0x3de649af	0.11244523
212	0xbe9e2e94	-0.3089491
213	0x3d086afd	0.033305157
214	0xbe99f9c1	-0.3007336
215	0xbe8351ac	-0.25648248
216	0x3e009156	0.12555441
217	0x3c227287	0.009915001
218	0x3e8bfccd	0.2734131
219	0x3e29e5a0	0.16591501
220	0xbdcb135b	-0.09915801
221	0xbe30a4c6	-0.17250356
222	0x3e09eb68	0.13468707
223	0x3e65d432	0.22444227
224	0x3ec06eb2	0.37584454
225	0x3ebcb8ff	0.3685989
226	0x3e79aa10	0.2438128
227	0x3d1f2f61	0.038863543
228	0xbdab7db0	-0.08373582
229	0x3d62448c	0.055241153
230	0x3e2434cc	0.16035765
231	0x3e6cf1f6	0.23139176
232	0x3d719d25	0.058987755
233	0x3efd8206	0.49513263
234	0xbd879c4d	-0.06621609
235	0xbd175e63	-0.03695525
236	0x3eb87442	0.36026198
237	0xbe055a2c	-0.13022679
238	0x3f839eda	1.0282853
239	0xbe1a3100	-0.15057755
240	0xbe96585a	-0.29364282
241	0x3d257a76	0.04039999
242	0xbefd99ed	-0.495315
243	0x3f154168	0.58302927
244	0x3d8beefa	0.068326905
245	0xbe0b6d13	-0.13615827
246	0xbf1e37cd	-0.61803895
247	0xbf492da1	-0.7858525
248	0xbf5af605	-0.85531646
249	0xbebed85a	-0.37274438
250	0xbd0627c4	-0.032752767
251	0xbd8cc178	-0.06872839
252	0xbcd241c9	-0.025666134
253	0xbe76d49b	-0.2410454
254	0xbe1d79ae	-0.15378448
255	0xbc7d46c7	-0.015458769

bias f4 [16]
0	0x3db04e24	0.08608654
1	0xbf31b3db	-0.6941506
2	0x3ea789e5	0.32722393
3	0xbe8128d7	-0.2522647
4	0xbf98115d	-1.1880299
5	0xbe69d1f8	-0.22834003
6	0xbc8f4870	-0.017490596
7	0x3f1e9029	0.6193872
8	0xbc74bf36	-0.014938166
9	0xbc2e0e50	-0.01062353
10	0x3e0050f2	0.12530878
11	0x40074ca0	2.1140518
12	0xbe8bb92c	-0.27289712
13	0x3f846303	1.0342716
14	0x400c8d83	2.1961372
15	0xbfa2332b	-1.2671865

weight f4 [120, 400]
0	0xbd45b987	-0.048272636
1	0xbe340ce3	-0.17583041
2	0x3da70466	0.08155136
3	0x3e2995b6	0.16561016
4	0xbd668546	-0.056279443
5	0x3cb00b09	0.021489637
6	0xbe0fd901	-0.14047624
7	0xbddebebe	-0.10876225
8	0x3d7aa463	0.061191928
9	0xbc72d28e	-0.014820708
10	0x3dc727fe	0.09724425
11	0xbd23ab27	-0.039958145
12	0x3d0bebbb	0.034160357
13	0x3e1a6648	0.1507808
14	0x3dd36780	0.103224754
15	0x3cfdf97b	0.03100275
16	0x3dc8c76b	0.09803661
17	0x3deb5107	0.11490064
18	0x3e64fc98	0.22361982
19	0x3dd7a3a4	0.10529259
20	0xbda47495	-0.08030049
21	0xbd7cbe8b	-0.061705153
22	0xbb1789de	-0.0023122947
23	0x3cee8ed8	0.029120848
24	0x3d54f1bc	0.05198835
25	0xbd8c66cd	-0.06855545
26	0x3dfda146	0.12384276
27	0x3c7ea22c	0.0155415945
28	0x3db71a16	0.089405224
29	0x3c2bc146	0.010483092
30	0x3d409ff0	0.04702753
31	0xbda1e44b	-0.079048716
32	0xbca87b39	-0.02056657
33	0x3daae7e9	0.083450146
34	0xbd5afaaa	-0.053461708
35	0x3d97394e	0.07383977
36	0x3e56e6ec	0.20986527
37	0x3dae5802	0.0851288
38	0x3e0fb4cd	0.14033814
39	0x3d82067f	0.06348895
40	0xbd1e20b4	-0.038605407
41	0x3cfc56c4	0.030803092
42	0x3e633740	0.22189045
43	0x3e48b6b7	0.1960095
44	0x3e729052	0.23687866
45	0x3d7e9653	0.06215508
46	0x3d025c44	0.031826273
47	0xbd2e29df	-0.0425204
48	0x3e00a60b	0.1256334
49	0x3dcd2237	0.100162916
50	0xbd70ab0a	-0.058756866
51	0x3df5e623	0.12006786
52	0x3d57cb4d	0.052684117
53	0x3ca7afab	0.020469507
54	0x3da58ac7	0.0808311
55	0x3da8f3dd	0.08249638
56	0x3c715189	0.014728912
57	0xbd80cbf1	-0.06288899
58	0xbe083078	-0.1329974
59	0xbd6eb35f	-0.05827653
60	0xbd4afec0	-0.049559355
61	0xbe5eb074	-0.21746999
62	0xbe04daec	-0.12974137
63	0xbd7bcbde	-0.06147372
64	0xbd9e2dd2	-0.07723583
65	0x3d72bdbc	0.059262976
66	0xbe59260e	-0.21205923
67	0xbc9d963e	-0.01923668
68	0xbd880ca1	-0.06643034
69	0x3d83ba91	0.06432069
70	0xbc8c495d	-0.017124826
71	0xbbeba697	-0.00719149
72	0xbcbae587	-0.022814525
73	0x3bcfff64	0.0063475836
74	0xbc816f77	-0.01580022
75	0xbdea09ba	-0.114276364
76	0x3d72297a	0.059121586
77	0x3d6c7443	0.057728063
78	0x3c355e9c	0.01106992
79	0xbe114970	-0.1418817
80	0xbc7c500b	-0.015399943
81	0xbceb1bf6	-0.028699856
82	0x3b028b41	0.0019919428
83	0xbd5cf177	-0.053941216
84	0xbcd81ea6	-0.026381802
85	0xbc6e0363	-0.014527175
86	0x3c9a737c	0.018853895
87	0x3ba14a6e	0.004922203
88	0x3c472692	0.012155192
89	0x3d9a1640	0.07523775
90	0x3dbce630	0.09223592
91	0xbdb7a7e2	-0.08967568
92	0x3e37b0b9	0.17938508
93	0x3e5875e2	0.21138719
94	0x3e32c793	0.17458944
95	0x3d08505b	0.033279758
96	0x3da0778e	0.07835303
97	0x3dbe16ba	0.092816785
98	0x3cd96740	0.026538491
99	0x3e2c524b	0.16828267
100	0xbd8746a4	-0.066052705
101	0xbd9bd8a6	-0.07609682
102	0xbd33a856	-0.04386171
103	0x3d14734f	0.03624278
104	0xbc001422	-0.0078173
105	0x3d98fb4f	0.07469808
106	0xbdbb003c	-0.09130904
107	0xbd141993	-0.036157202
108	0xbd3bd280	-0.045855045
109	0xbd9b8b77	-0.0759496
110	0x3dff964f	0.12479841
111	0xbdbe916c	-0.09305081
112	0x3e2a2044	0.16613871
113	0x3da98249	0.08276803
114	0x3d22bac2	0.039728887
115	0xbdb4c285	-0.08826164
116	0xbdce805d	-0.10083077
117	0xbc944933	-0.01810131
118	0xbd2834ba	-0.04106591
119	0xbe04db9f	-0.12974404
120	0x3e05022a	0.12989107
121	0xbd89f711	-0.06736577
122	0x3d89815a	0.06714125
123	0xbca98689	-0.020694034
124	0xbcb19391	-0.02167681
125	0xbe304a16	-0.17215762
126	0xbe41b2fa	-0.1891593
127	0xbda08d8c	-0.07839498
128	0x3e06922b	0.13141696
129	0xbb6a3485	-0.003573687
130	0xbd498e82	-0.04920817
131	0xbd86a9a8	-0.06575328
132	0xbccf8a3a	-0.025334466
133	0x3da9f5a2	0.08298804
134	0x3db7944a	0.08963831
135	0xbd16707d	-0.03672837
136	0x3dd47239	0.10373349
137	0x3d8bd501	0.06827737
138	0x3e09f672	0.13472918
139	0xbd3ae706	-0.045630477
140	0xbe32ba5c	-0.17453903
141	0xbc879d7e	-0.01655459
142	0x3d963334	0.07333985
143	0xbc03a2c7	-0.008034415
144	0xbdc4018d	-0.09570608
145	0x3d964629	0.07337601
146	0x3d76ff69	0.06030217
147	0x3dd06bff	0.101768486
148	0xbc2a1ee4	-0.010383341
149	0xbdf04f1f	-0.11733841
150	0xbc3dfd4b	-0.011596034
151	0xbc692daf	-0.014232083
152	0x3b7c9043	0.0038538135
153	0xbd8c2c18	-0.06844348
154	0x3d956fe1	0.0729673
155	0x3e00c5d3	0.12575464
156	0x3e256dd9	0.16155185
157	0xbc817c27	-0.01580627
158	0x3dd2d995	0.10295407
159	0xbacd2989	-0.0015652637
160	0x3d8d4da1	0.06899572
161	0x3d85882c	0.06520113
162	0x3d81cd5c	0.06337997
163	0xbbf8b4e9	-0.0075899255
164	0x3d1546c2	0.036444433
165	0x3da68b7a	0.08132072
166	0xbdc3df8c	-0.095641226
167	0xbd3079e0	-0.04308498
168	0xbd4ce28a	-0.050020732
169	0xbdd4546d	-0.103676654
170	0xbd91bbd2	-0.07115902
171	0xbe2bc038	-0.16772544
172	0xbe1f4318	-0.15552938
173	0xbca71a46	-0.02039827
174	0x3d133956	0.03594335
175	0xbdb8b6d5	-0.090192474
176	0xbdf473fd	-0.119361855
177	0xbe04bb71	-0.12962128
178	0xbe03da55	-0.12876256
179	0xbdc6aab9	-0.097005315
180	0x3cf36122	0.029709402
181	0xbd51e8b1	-0.051247302
182	0xbdba88ea	-0.091081455
183	0xbdde2785	-0.108473815
184	0xbc3c3d9a	-0.011489296
185	0xbdca3844	-0.09874013
186	0xbdc0cc42	-0.09413959
187	0xbe1b988b	-0.1519491
188	0xbdf852df	-0.121251814
189	0xbe4ee520	-0.20204592
190	0xbd90aa00	-0.07063675
191	0xbe109fb4	-0.14123422
192	0xbe0a94a1	-0.1353326
193	0xbe471003	-0.19439702
194	0xbde3f5c4	-0.111308604
195	0x3c0ba2b9	0.008522683
196	0xbdb93994	-0.09044185
197	0xbdccf9b0	-0.100085616
198	0xbd8afbd3	-0.06786313
199	0x3c832861	0.016010465
200	0xbd80fc47	-0.06298118
201	0x3e0da9e2	0.13834336
202	0xbdad8745	-0.08473066
203	0xbe05437b	-0.13014023
204	0x3bdc9494	0.006731579
205	0xbdc89f86	-0.09796052
206	0xbcd27395	-0.02568988
207	0xbdf5f112	-0.12008871
208	0xbe27524b	-0.16339986
209	0xbe169792	-0.14706257
210	0xbe30a217	-0.17249332
211	0xbccebc54	-0.025236286
212	0xbd32daa7	-0.043665554
213	0xbd9f11d6	-0.07767074
214	0xbe0f1679	-0.13973416
215	0xbc32ee7c	-0.010921117
216	0x3c866c5e	0.016409095
217	0x3cfef595	0.031122962
218	0xbdb8895c	-0.09010574
219	0x3d87a84b	0.06623896
220	0xbd15d376	-0.036578618
221	0x3d4fb3f8	0.05070874
222	0xbd5d6435	-0.054050643
223	0xbd550bfd	-0.052013386
224	0xbd14f039	-0.036361907
225	0xbd991ff6	-0.07476799
226	0x3df12718	0.11775035
227	0xbc64bf6d	-0.013961655
228	0x3df32d4c	0.11873874
229	0x3cbee01f	0.023300229
230	0x3dffb3b8	0.124854505
231	0x3da543fd	0.08069608
232	0xbcf9ddce	-0.030501273
233	0xbd84b850	-0.06480467
234	0x3c5f2cd4	0.013621528
235	0x3d294e83	0.04133464
236	0x3da9d87e	0.08293246
237	0x3df3d0b6	0.11905043
238	0x3d16e4c6	0.03683927
239	0x3c9a00dd	0.01879924
240	0xbd90c389	-0.07068545
241	0x3bc45d60	0.0059925765
242	0xbceff85c	-0.029293232
243	0xbd102b8a	-0.035197772
244	0x3d9a2c16	0.0752794
245	0x3cb94618	0.022616431
246	0xbdba08b5	-0.09083692
247	0xbe227ced	-0.15867968
248	0xbca7fd09	-0.020506399
249	0xbdbf9cf6	-0.0935611
250	0xbc68fc96	-0.014220377
251	0x3e4eb12d	0.20184775
252	0x3e3c4eb0	0.18389392
253	0x3db0aa0e	0.08626185
254	0xbc6a8684	-0.014314298
255	0xbddb0abe	-0.10695408

bias f4 [120]
0	0xbe79f38d	-0.24409313
1	0x3e0225fe	0.12709805
2	0x3bccbf96	0.0062484248
3	0x3d35f8f4	0.044426873
4	0x3e8d61c6	0.27613658
5	0x3dd031e6	0.10165767
6	0x3ea14ffd	0.3150634
7	0xbd6248b5	-0.05524512
8	0x3cd9a60d	0.026568437
9	0x3e6c7ad0	0.23093724
10	0x3dcb4f5c	0.09927246
11	0xbeb741d5	-0.35792413
12	0xbdd2fdb5	-0.10302297
13	0x3d50e30e	0.050997786
14	0xbe0c323a	-0.13691035
15	0xbd75571f	-0.05989754
16	0xbca7a440	-0.020464063
17	0xbdb9090d	-0.090349294
18	0xbe877897	-0.2645919
19	0x3e03d836	0.12875447
20	0xbdb390fb	-0.08767887
21	0x3d5c0d2f	0.05372351
22	0xbc03ed1a	-0.008052135
23	0xbd9abfe1	-0.07556129
24	0xbd855c74	-0.06511775
25	0xbe7a1671	-0.24422623
26	0x3dae0123	0.084963106
27	0xbc05ea44	-0.008173529
28	0xbe4a403c	-0.19751066
29	0x3d15391a	0.03643141
30	0x3db9612d	0.09051738
31	0xbdab42b4	-0.08362332
32	0x3ea34bf3	0.31893882
33	0x3da6450a	0.08118637
34	0xbd8874f3	-0.06662931
35	0x3d814412	0.063118115
36	0xbc84b3a8	-0.016198948
37	0xbd6246ab	-0.055243175
38	0x3e80d3e3	0.25161657
39	0x3e1bbe5e	0.15209338
40	0xbb94d65a	-0.0045421543
41	0x3ed28b0d	0.41121712
42	0x3dc13623	0.09434154
43	0xbbbfc2c5	-0.0058520758
44	0xbd5de65d	-0.05417477
45	0x3e494f84	0.19659239
46	0xbe1a0653	-0.15041475
47	0x3e4e9ec2	0.20177749
48	0xbbb7dbea	-0.0056109326
49	0xbdab740e	-0.08371745
50	0xbddfdeee	-0.10931192
51	0xbddb8cb1	-0.10720194
52	0xbd2b22de	-0.0417813
53	0x3de46f46	0.11154036
54	0xbd2a98a0	-0.04164946
55	0xbcca7593	-0.024714267
56	0xbdfe1870	-0.12407005
57	0xbc907d6e	-0.017637935
58	0x3cf1093c	0.029423349
59	0x3e54b6ce	0.2077286
60	0x3e49095e	0.1963248
61	0x3e0a7177	0.13519846
62	0x3e61d2e2	0.22053102
63	0x3dc77ea6	0.09740953
64	0xbb8079e1	-0.003920779
65	0xbd02f6f9	-0.031973813
66	0x3e71c6a4	0.23610932
67	0xbe1af2ef	-0.15131734
68	0xbdb3ebe5	-0.08785228
69	0x3e185dfc	0.14879602
70	0xbd2a4097	-0.041565504
71	0xbe474922	-0.19461492
72	0xbdad663f	-0.084667675
73	0x3ce3abd0	0.027791888
74	0x3e4cbdd9	0.19994296
75	0x3e33f511	0.17573954
76	0x3d83589f	0.064133875
77	0xbdec1ecf	-0.11529314
78	0xbe78a483	-0.24281506
79	0x3e12ea80	0.14347267
80	0x3d4cbd84	0.049985424
81	0x3e82a339	0.25515154
82	0x3e048ad9	0.12943591
83	0x3ef965d3	0.48710498
84	0x3e060eda	0.13091603
85	0x3b55233c	0.0032522222
86	0xbbe74109	-0.0070573133
87	0xbc44219d	-0.011970905
88	0xb9f25ffb	-0.00046229348
89	0x3e5ede3d	0.21764465
90	0x3de88df6	0.11355202
91	0x3dbee153	0.09320321
92	0xbdbae7cf	-0.09126245
93	0xbdf61558	-0.1201579
94	0x3e2b7a80	0.16745949
95	0xbddb046b	-0.10694202
96	0xbdc7e920	-0.09761262
97	0xbdc6940e	-0.09696208
98	0xbc50b031	-0.01273732
99	0x3e3e97d2	0.18612602
100	0xbc958ae9	-0.018254714
101	0xbe8d8816	-0.27642888
102	0x3e05b355	0.13056691
103	0x3e62777b	0.2211589
104	0x3c234fa0	0.009967715
105	0xbd8849fb	-0.06654736
106	0xbded533e	-0.11588143
107	0x3c4b485a	0.012407387
108	0x3de199bf	0.11015653
109	0x3ea19c44	0.31564534
110	0x3e0baa8e	0.1363928
111	0xbcc341e9	-0.02383514
112	0xbd7921b2	-0.06082315
113	0x3dab1a01	0.08354569
114	0x3ecf400e	0.40478557
115	0x3dfbef67	0.12301522
116	0xbd98f183	-0.0746794
117	0x3d9bf145	0.07614378
118	0x3c809f2f	0.015700905
119	0xba160ae8	-0.0005723671

weight f4 [84, 120]
0	0xbe10f4cf	-0.14155887
1	0xbd96552b	-0.07340463
2	0x3e3a3415	0.1818393
3	0x3b9aaad8	0.004720073
4	0x3e822058	0.254153
5	0x3e23367e	0.15938756
6	0xbe1a13e5	-0.15046652
7	0xbddc2888	-0.10749918
8	0x3e04fbd8	0.12986696
9	0x3d93b15f	0.07211565
10	0xbe1f8bb9	-0.15580644
11	0xbd93d8fe	-0.07219122
12	0xbdde2887	-0.10847574
13	0x3d65cea7	0.056105282
14	0x3da747d1	0.08167995
15	0xbc3e40e0	-0.011612147
16	0xbdce7f59	-0.100828834
17	0xbe87d5ec	-0.26530397
18	0xbcfffa9b	-0.031247428
19	0xbe22cc56	-0.1589826
20	0xbd5b043d	-0.05347084
21	0xbc7a7ee5	-0.015289043
22	0x3d7ffaed	0.06249516
23	0xbe0c1098	-0.13678205
24	0x3dc6b084	0.097016364
25	0xbd86710f	-0.06564533
26	0x3be65a87	0.0070298347
27	0x3e0d6dad	0.13811369
28	0xbde845c8	-0.11341435
29	0xbd090b75	-0.033458192
30	0x3e56179c	0.20907444
31	0xbe0092ce	-0.12556002
32	0xbdebd1f8	-0.11514658
33	0x3d8254b6	0.063638136
34	0xbd67da2b	-0.056604546
35	0x3d9ee599	0.07758636
36	0xbe1bf635	-0.1523064
37	0x3da9e8da	0.08296366
38	0x3e8cac98	0.2747543
39	0xbe08f7cd	-0.13375778
40	0x3dbd215d	0.09234879
41	0x3dd4ae8f	0.10384857
42	0xbe79863a	-0.2436761
43	0xbde7d3f7	-0.11319726
44	0xbcb74ac2	-0.022374514
45	0xbe6f04cd	-0.23341675
46	0xbdb5a82f	-0.08869969
47	0xbe3fe307	-0.18738948
48	0x3d558fb7	0.05213901
49	0xbda0f30c	-0.078588575
50	0xbd0739fc	-0.033014283
51	0x3ba6f410	0.0050950125
52	0xbc89aed7	-0.016807003
53	0xbdcad3f2	-0.099037066
54	0xbbb3c7be	-0.0054864576
55	0xbd9cd1fa	-0.07657237
56	0xbea110d0	-0.3145814
57	0xbcd6fd51	-0.026243838
58	0xbd57df30	-0.052703083
59	0xbe4ab2b9	-0.1979474
60	0xbd15d268	-0.036577612
61	0xbc0c2c66	-0.008555507
62	0xbd7b11e5	-0.061296362
63	0x3cc2dbac	0.023786388
64	0xbd8fdf85	-0.07025055
65	0x3cd3ab7c	0.025838606
66	0xbe5946b1	-0.21218373
67	0xbddb0021	-0.10693384
68	0xbe08f338	-0.1337403
69	0xbccc7f8b	-0.024963161
70	0x3dd01d56	0.101618454
71	0xbe73d6fa	-0.23812476
72	0xbe2c029d	-0.16797872
73	0x3bf22998	0.0073902123
74	0x3d576897	0.05258998
75	0x3da3090d	0.07960711
76	0x3daca90a	0.08430679
77	0xbe8596a7	-0.260915
78	0x3c05a92a	0.008158008
79	0xbcd9dcbd	-0.026594514
80	0x3c83b7cc	0.016078852
81	0x3b9e538c	0.004831737
82	0x3d183fcb	0.037170213
83	0xbdd57e93	-0.10424533
84	0xbcb666ef	-0.02226588
85	0xbe03c19a	-0.12866822
86	0xbde2e821	-0.11079431
87	0xbda1475a	-0.07874937
88	0xbd62bf50	-0.05535823
89	0x3cf592b4	0.02997718
90	0x39962275	0.00028635902
91	0x3e26e3a2	0.16297773
92	0xbd345af3	-0.04403205
93	0x3d576af8	0.052592248
94	0xbdfdb9ca	-0.12388952
95	0xbd6935b7	-0.056935992
96	0xbdb37880	-0.08763218
97	0x3a8984a6	0.0010491803
98	0xbd3faee9	-0.046797667
99	0x3cc9147b	0.024545899
100	0x3db7a9f9	0.089679666
101	0x39a01e2c	0.00030540058
102	0x3e03e4e7	0.12880288
103	0xbcb0d2e7	-0.021584941
104	0x3d7e0183	0.06201316
105	0xbd892761	-0.06696964
106	0xbd4bdc82	-0.04977084
107	0x3d9405c9	0.07227666
108	0xbcd8a60e	-0.026446369
109	0xbe7513d0	-0.23933339
110	0x3dd3082c	0.10304293
111	0x3d8e6070	0.06951988
112	0x3c31bf96	0.0108489
113	0x3c17efd1	0.009273485
114	0xbd99dbcd	-0.07512627
115	0xbe39acd6	-0.18132338
116	0x3db9e4b5	0.090768255
117	0x3e1d4112	0.15356854
118	0xba2b2796	-0.0006529031
119	0xbd32fb4a	-0.04369668
120	0x3d81efda	0.06344576
121	0xbcaf28f3	-0.02138183
122	0xbd971cef	-0.073785655
123	0xbe1a1bad	-0.1504962
124	0xbd4aa8f0	-0.049477518
125	0xbcbd4a9a	-0.023106862
126	0x3e0653db	0.13117926
127	0x3d693617	0.05693635
128	0x3d642537	0.055699553
129	0x3d61c12f	0.055115875
130	0x3de264fa	0.11054416
131	0xbde21866	-0.1103981
132	0x3d97a23f	0.07403993
133	0xbd9be298	-0.07611579
134	0x3cbb6345	0.022874484
135	0x3da436d6	0.080182716
136	0xbca26596	-0.01982383
137	0x3cf14055	0.029449621
138	0xbdafbb72	-0.08580674
139	0xbd2dab48	-0.042399675
140	0xbd852036	-0.065002844
141	0xbd8b6231	-0.06805838
142	0xbd230ef7	-0.039809193
143	0x3d81fd54	0.06347147
144	0xbd653504	-0.055958763
145	0xbd4a7828	-0.049430996
146	0x3dd6dfb7	0.10491889
147	0xbdc65498	-0.09684104
148	0xbcb95a02	-0.022625927
149	0x3dafbe3f	0.085812084
150	0xbd16ab0b	-0.036784213
151	0xbc82d3c5	-0.01597012
152	0xbe0be1b1	-0.13660313
153	0xbd67aca7	-0.05656114
154	0x3c90e5d1	0.01768771
155	0xbe0ef413	-0.13960294
156	0xbd9ae48d	-0.07563124
157	0xbe3edc62	-0.18638757
158	0x3c6b3fb1	0.014358447
159	0xbe096975	-0.13419135
160	0xbe228ba7	-0.15873586
161	0xbd6e11b4	-0.05812235
162	0x3e00d7e6	0.12582359
163	0xbd1b9111	-0.037980143
164	0xbe14bde4	-0.14525563
165	0x3e32dcbd	0.17467017
166	0x3c8b88d9	0.017033027
167	0xbdfbdc03	-0.12297823
168	0x3db3b6a7	0.087750725
169	0xbda4ef06	-0.080534026
170	0xbdbd13c8	-0.092322886
171	0x3d63931d	0.05556022
172	0xbd439e13	-0.047758173
173	0xbdd36294	-0.10321537
174	0xbcf14f6d	-0.029456818
175	0x3e34c4a7	0.17653142
176	0xbe037b88	-0.12840092
177	0xbd8b1f7f	-0.06793117
178	0xbccab8bb	-0.02474629
179	0xbcebee55	-0.028800169
180	0xbdc42248	-0.09576851
181	0xbe22fe6f	-0.15917371
182	0xbcd3d2f5	-0.025857428
183	0xbda38458	-0.07984227
184	0xbdc47aef	-0.0959376
185	0x3caa54b0	0.020792335
186	0x3dc17d61	0.09447742
187	0xbd425d8a	-0.047452487
188	0x3e79270a	0.24331298
189	0xbd845763	-0.0646198
190	0x3db60f72	0.08889665
191	0x3dcad4cc	0.09903869
192	0x3d796ef6	0.060896836
193	0x3d66d46c	0.056354925
194	0x3cf755ef	0.030192344
195	0xbe1c8722	-0.15285924
196	0x3e2d52df	0.16926144
197	0xbd60e74a	-0.054908074
198	0xbd89cabf	-0.06728124
199	0x3ba90939	0.00515857
200	0x3d1c24da	0.038121082
201	0xbd613fe3	-0.054992568
202	0xbdc9001f	-0.09814476
203	0xbe578817	-0.21048008
204	0xbda16a03	-0.07881548
205	0x3ccec3f3	0.02523992
206	0xbb47c187	-0.0030480342
207	0x3dd10552	0.10206093
208	0xbe121e3f	-0.1426935
209	0xbdbb5f3e	-0.091490254
210	0x3c5d5a55	0.013510306
211	0x3c3e10d4	0.011600692
212	0xbdfa06dd	-0.1220834
213	0x3df7f69c	0.12107584
214	0x3d0ee0dc	0.03488241
215	0x3dad6ecf	0.08468401
216	0xbd8e905a	-0.069611266
217	0x3e18affc	0.14910883
218	0x3ce228ad	0.027607286
219	0xbdec8b3e	-0.11549996
220	0xbda2b884	-0.0794535
221	0xbcea7bc6	-0.028623473
222	0x3d0e421e	0.034731023
223	0x3d93b6c1	0.07212592
224	0xbd834eac	-0.0641149
225	0xbdf88d38	-0.1213631
226	0xbd9063af	-0.07050263
227	0xbe25e4b1	-0.1620052
228	0xbd35f0dc	-0.044419155
229	0x3ca0319d	0.019554907
230	0xbd65874e	-0.05603724
231	0xbb9758ae	-0.0046187257
232	0xbe0bb66e	-0.1364381
233	0xbe1499ef	-0.14511846
234	0xbd8f7435	-0.070045866
235	0x3d82bd14	0.0638372
236	0x3ca739b0	0.02041325
237	0xbd2e2608	-0.04251674
238	0x3e2bc8a7	0.16775762
239	0xbca18639	-0.019717323
240	0x3e9f37f8	0.31097388
241	0x3dc37ef7	0.09545701
242	0xbdb5f3a3	-0.08884361
243	0xbe5b3dec	-0.2141034
244	0xbe0b3ad7	-0.13596664
245	0xbdb25b33	-0.08708801
246	0x3dc2bf49	0.09509141
247	0xbd9c51cf	-0.07632791
248	0xbe108496	-0.14113078
249	0x3c2785ae	0.010224743
250	0xbe1dfec2	-0.15429214
251	0xbd96107f	-0.07327365
252	0x3e168d6c	0.14702386
253	0xbe0c3d4f	-0.13695262
254	0xbce765d2	-0.028246794
255	0xbccc3390	-0.02492693

bias f4 [84]
0	0x3ea737d8	0.32659793
1	0xbe02c4f0	-0.12770438
2	0x3ddc857b	0.10767647
3	0x3e0fa780	0.1402874
4	0x3e87a739	0.26494768
5	0xbe8803b3	-0.26565322
6	0x3f3a6382	0.72808087
7	0x3c583e34	0.013198424
8	0xbd3c95e6	-0.04604139
9	0x3f2e7ca7	0.68158954
10	0xbb805124	-0.0039159227
11	0x3f017c9b	0.5058076
12	0xbce93abf	-0.028470395
13	0x3d2be636	0.041967593
14	0x3aa6073a	0.0012666949
15	0xbd1dbf11	-0.038512293
16	0x3e4b7879	0.19870175
17	0xbd301480	-0.0429883
18	0xbe16d670	-0.14730239
19	0xbe14c897	-0.14529644
20	0xbd2da9e4	-0.04239835
21	0xbddfeed4	-0.10934225
22	0x3eddf1f4	0.43348658
23	0x3d9110d6	0.07083289
24	0x3dfb5ac3	0.12273171
25	0x3d053200	0.032518387
26	0xbcd93cf3	-0.02651832
27	0x3efa04d2	0.48831803
28	0x3ecd8a22	0.4014445
29	0x3e21d633	0.15804367
30	0x3e8d5acb	0.27608332
31	0x3e72955b	0.23689787
32	0xbc5fa484	-0.013650063
33	0x3e1091b1	0.14118077
34	0xbde9f53e	-0.11423729
35	0x3dc915ca	0.09818609
36	0x3f16f581	0.5896836
37	0x3d746adf	0.059672233
38	0xbda32d38	-0.07967609
39	0x3e892dcf	0.26792762
40	0x3ecd5075	0.40100446
41	0x3e96979d	0.29412547
42	0x3e495962	0.19663003
43	0x3f057447	0.5213055
44	0xbc94b9b9	-0.018154966
45	0x3ebf5bdd	0.37374774
46	0x3e4b9d7d	0.19884296
47	0x3ead984a	0.3390525
48	0x3ed9d130	0.4254241
49	0x3e31502e	0.17315742
50	0x3c694719	0.014238142
51	0x3d932755	0.07185236
52	0x3e82b037	0.25525066
53	0x3e9989f3	0.2998806
54	0x3e837dd6	0.25681943
55	0xbe72f137	-0.23724829
56	0x3f6eb80d	0.9324959
57	0x3bcfac6d	0.0063376934
58	0x3d992f08	0.074796736
59	0xbcebf185	-0.028801689
60	0xbdc1b6a4	-0.09458664
61	0x3c41fb3b	0.011839683
62	0x3e094917	0.13406788
63	0xbc92a7da	-0.017902303
64	0x3d30245c	0.043003425
65	0x3ed60a8b	0.4180492
66	0x3e92b6fd	0.28655234
67	0xbc6ee3dc	-0.014580693
68	0x3ece09e0	0.4024191
69	0xbd6ae6fb	-0.057349186
70	0xbcf13de3	-0.029448455
71	0x3e877216	0.26454228
72	0xbe9659a7	-0.29365274
73	0x3f343215	0.7038892
74	0xbdc4661b	-0.095897876
75	0x3e869eff	0.2629318
76	0xbd787db7	-0.060666766
77	0x3c993937	0.01870404
78	0xbd933805	-0.07188419
79	0x3efa5b26	0.48897666
80	0x3e83e577	0.25761005
81	0x3be66c93	0.007031986
82	0xbd9cf49e	-0.076638445
83	0x3d3a7777	0.045524087

weight f4 [10, 84]
0	0xbcb77770	-0.02239582
1	0xbdf8b4b1	-0.12143839
2	0xbe0d23e3	-0.13783221
3	0xbe3f963f	-0.18709658
4	0x3e106cc6	0.14103994
5	0x3e6effbf	0.23339747
6	0xbe869e69	-0.26292732
7	0xbdd41a67	-0.10356598
8	0xbe4f4dea	-0.20244566
9	0x3c9d08f5	0.01916931
10	0x3be9baf1	0.007132881
11	0xbd1e66ab	-0.03867213
12	0xbd95d16c	-0.07315335
13	0xbc2d01cc	-0.01055951
14	0xbdafc0a1	-0.08581663
15	0x3e93b72c	0.28850687
16	0x3e4e5e43	0.20153145
17	0x3cdb8b70	0.026799887
18	0x3e6319da	0.2217783
19	0x3dde9a55	0.1086928
20	0x3e6ec373	0.23316745
21	0x3e44d412	0.19221523
22	0xbed0ba2d	-0.4076704
23	0x3d0c3dd8	0.034238666
24	0xbd190b03	-0.037364017
25	0x3ddb6959	0.10713453
26	0xbcf98f94	-0.030463971
27	0x3e1b1ebe	0.15148446
28	0xbdd48f38	-0.10378879
29	0x3e322a1e	0.17398879
30	0xbe5b9c32	-0.21446303
31	0xbe3b897d	-0.18314166
32	0xbdb4f896	-0.088364765
33	0x3b6e0fbb	0.0036325294
34	0x3dcf4270	0.10120094
35	0xbcd050e9	-0.025429206
36	0xbe04c4ac	-0.1296565
37	0xbe4f1a28	-0.20224822
38	0x3af055bf	0.0018336101
39	0xbde1a5b0	-0.110179305
40	0xbe49b7b6	-0.19698986
41	0xbd2cfaf0	-0.0422315
42	0x3da64e90	0.08120453
43	0xbd70401c	-0.05865489
44	0xbde4e399	-0.11176223
45	0xbd96156b	-0.07328304
46	0x3e8369af	0.25666568
47	0xbeb352ab	-0.35024008
48	0xbd922296	-0.07135503
49	0x3e6c3693	0.23067693
50	0x3df48969	0.119402714
51	0xbbe963d3	-0.0071224957
52	0x3e011a05	0.12607582
53	0x3e3ce6c5	0.18447407
54	0xbd9ef287	-0.07761102
55	0x3ddf2c9d	0.10897181
56	0xbcd02d08	-0.025412098
57	0x3dac6d17	0.08419245
58	0x3e38a229	0.18030609
59	0x3e288654	0.16457492
60	0x3e3d2929	0.18472733
61	0xbe1da925	-0.15396555
62	0x3cbf0b6e	0.02332088
63	0x3e78b8a8	0.24289191
64	0xbe0dd64d	-0.1385128
65	0xbe53cb9e	-0.20683143
66	0x3e33d80e	0.17562887
67	0x3e02e44c	0.12782401
68	0x3d526af4	0.05137153
69	0x3e7e185c	0.2481398
70	0xbb929cb4	-0.004474247
71	0x3e3b1ea7	0.18273412
72	0x3dc64b96	0.096823856
73	0xbda1632c	-0.07880244
74	0x3e2ca0bf	0.16858195
75	0x3e1aa07f	0.15100287
76	0x3c0b17cc	0.00848956
77	0x3d09d6b0	0.033652008
78	0xbd8d513b	-0.06900259
79	0xbe2e56fd	-0.17025371
80	0xbd7d8642	-0.061895616
81	0x3e3e15d2	0.18563011
82	0x3ce3cfb9	0.02780901
83	0xbe260d88	-0.162161
84	0xbe36354b	-0.17793767
85	0x3e22c6a9	0.15896095
86	0x3e16b648	0.14717972
87	0x3e3f834d	0.18702431
88	0xbdda0f90	-0.106474996
89	0x3dfc574b	0.12321337
90	0xbd1feb42	-0.03904272
91	0x3d794d23	0.06086458
92	0x3ddd32e2	0.10800721
93	0xbe9d9c9d	-0.3078355
94	0x3e87ac08	0.26498437
95	0x3d9e41e4	0.077274114
96	0x3e79c783	0.24392514
97	0x3ed3dd65	0.41379848
98	0xbcab0150	-0.02087465
99	0xbc7bcec5	-0.015369122
100	0xbd994efb	-0.074857675
101	0x3cb5a3bd	0.022172803
102	0xbd871f92	-0.065978184
103	0x3e7b2d7c	0.2452907
104	0xbe044d83	-0.12920193
105	0xbdaa7e37	-0.08324855
106	0xbde01f74	-0.10943499
107	0x3e451f30	0.19250178
108	0x3e185f42	0.14880088
109	0xbe2f2eda	-0.17107716
110	0xbd59fca3	-0.05321945
111	0xbe8a0a90	-0.26961184
112	0x3dba483e	0.0909581
113	0xbd11dd08	-0.035611182
114	0x3e72252c	0.23646992
115	0x3d8bfa98	0.06834906
116	0xbe292adc	-0.16520256
117	0x3e17fa82	0.14841655
118	0xbc230cf7	-0.0099518215
119	0x3e740dd8	0.23833406
120	0xbec3bcc8	-0.38229966
121	0x3dd2646a	0.10273059
122	0x3c6dd18b	0.014515291
123	0x3c39b495	0.011334558
124	0x3cef40f2	0.029205773
125	0x3e42e072	0.19030932
126	0xbda0ce58	-0.07851857
127	0xbeda9d27	-0.42698023
128	0x3ddfa19b	0.10919496
129	0xbe83e5b7	-0.25761196
130	0x3e506786	0.20351991
131	0x3c27e687	0.010247833
132	0xbdbc3c7e	-0.091912255
133	0x3ebd45f4	0.36967432
134	0x3d272caa	0.04081408
135	0x3de46134	0.111513525
136	0x3c03d286	0.008045798
137	0xbe83d832	-0.2575088
138	0xbe72221d	-0.23645826
139	0x3e59afbe	0.21258447
140	0xbe5d6296	-0.21619639
141	0x3d08fe50	0.033445656
142	0x3d8211c5	0.063510455
143	0x3d6377da	0.05553422
144	0xbc47461a	-0.01216271
145	0xbd6598d3	-0.056053948
146	0x3ddd538a	0.108069494
147	0xbe56b4f9	-0.20967473
148	0xbe1be25d	-0.1522307
149	0xbc7074ba	-0.014676267
150	0xbd95bdfa	-0.07311626
151	0x3df7665e	0.12080072
152	0xbd9c0b22	-0.07619311
153	0xbda8defa	-0.082456544
154	0xbd0d0073	-0.034424257
155	0xbe3948cb	-0.18094175
156	0x3e580345	0.21094997
157	0xbea6f439	-0.32608202
158	0xbcf26412	-0.029588733
159	0x3dd8f03e	0.105926976
160	0x3e87e611	0.26542714
161	0x3d98d506	0.07462506
162	0x3e324683	0.1740971
163	0xbcf8ff58	-0.030395195
164	0xbdfe7f1b	-0.12426587
165	0x3e10fbe0	0.14158583
166	0x3bcecc2f	0.0063109617
167	0xbd759e98	-0.0599657
168	0x3dad71e7	0.08468991
169	0x3e7bda8e	0.24595091
170	0x3db70648	0.08936745
171	0x3b68a397	0.0035497898
172	0x3d514420	0.05109036
173	0xbc96a11d	-0.018387372
174	0x3da5989c	0.080857486
175	0xbe2f99ec	-0.1714856
176	0x3d249c60	0.040188193
177	0xbc8619b2	-0.016369674
178	0xbd80b956	-0.0628535
179	0x3d38254e	0.04495745
180	0xbcf0c51e	-0.029390868
181	0xbe715aea	-0.23569837
182	0x3e6713ca	0.22566143
183	0x3dd31cce	0.103082284
184	0x3bcfdc28	0.0063433833
185	0x3e2a5886	0.16635332
186	0x3e3c9d85	0.18419464
187	0xbe0827a8	-0.13296378
188	0x3e617bd5	0.22019894
189	0x3d49144e	0.04909163
190	0xbbdbd2ec	-0.0067084935
191	0xbd57ead7	-0.052714195
192	0x3db94a7f	0.09047412
193	0x3e23d0fd	0.15997691
194	0x3e8a4276	0.2700383
195	0x3e00d5c9	0.12581553
196	0x3e6bec25	0.230393
197	0x3db82f74	0.08993426
198	0xbe8a88ae	-0.27057403
199	0xbdf4a1a3	-0.11944892
200	0x3e639e36	0.22228321
201	0x3d49b715	0.049246866
202	0xbe05085f	-0.12991475
203	0x3d8047cb	0.062636934
204	0xbd62aae3	-0.05533875
205	0xbd11fce1	-0.035641555
206	0x3e0e09a0	0.13870859
207	0xbe54717a	-0.20746413
208	0x3d0ea377	0.03482386
209	0xbdfe90fc	-0.12429997
210	0x3b6522ad	0.0034963295
211	0x3e8379e3	0.2567893
212	0x3e0bedec	0.13664979
213	0x3d870aea	0.065938786
214	0xbe1f3648	-0.1554805
215	0xbd6968ee	-0.056984834
216	0x3dd3bf34	0.103392035
217	0xbdc1abe2	-0.09456612
218	0xbe3c7aaf	-0.18406175
219	0x3e2af204	0.16693884
220	0xbe5ee9b2	-0.21768835
221	0x3e27065e	0.16311023
222	0x3e490041	0.19629003
223	0xbcfad4b1	-0.030618997
224	0x3e7a7dd8	0.24462068
225	0xbd5158b5	-0.05110999
226	0xbdeb02c8	-0.1147514
227	0x3e472c70	0.19450545
228	0x3e3141d6	0.1731027
229	0x3be12947	0.0068713757
230	0x3dee9e76	0.11651318
231	0x3d98c087	0.07458597
232	0xbddb2125	-0.10699681
233	0x3df4bec4	0.11950448
234	0x3d2a85bc	0.041631445
235	0x3dd7dcd8	0.105401695
236	0x3e38247f	0.17982672
237	0xbc867ad6	-0.016415995
238	0xbce722c5	-0.028214822
239	0xbda029ad	-0.07820449
240	0x3d945972	0.07243623
241	0x3e98b86e	0.2982821
242	0x3dbc4c7d	0.091942765
243	0xbe9f7772	-0.31145817
244	0x3e7b63e9	0.24549831
245	0xbcb22174	-0.021744467
246	0x3e954b49	0.29159
247	0x3c481118	0.012211107
248	0xbd30a7df	-0.043128844
249	0xbe102631	-0.14077069
250	0x3e4ac127	0.19800244
251	0x3e2aab7f	0.16666983
252	0x3d816a48	0.063191
253	0x3d3608cc	0.044441983
254	0x3cbac2b0	0.022797912
255	0x3cc094ca	0.023508448

bias f4 [10]
0	0xbed1da14	-0.40986693
1	0xbf8fe4b2	-1.1241667
2	0xbe32f825	-0.17477472
3	0x3f58608d	0.84522325
4	0x3f46994c	0.7757766
5	0x3e24d3a9	0.16096367
6	0x3d0e1f0a	0.03469757
7	0xbe6920a5	-0.22766359
8	0xbd1b1309	-0.03785995
9	0x3db973c7	0.09055286
