model.pth (torch, 254940 bytes, 10 tensors)

weight f4 [6, 3, 5, 5]
0	0x3ea0d082	0.3140908
1	0x3e1eb196	0.15497431
2	0xbe1cf026	-0.15325984
3	0xbd8446c2	-0.064588085
4	0x3e902e5c	0.2816037
5	0x3daf055b	0.08545943
6	0xbee7c3a4	-0.4526645
7	0xbefb93ab	-0.491361
8	0xbe222be4	-0.15837055
9	0x3eed1fcc	0.46313322
10	0xbed8da42	-0.42354017
11	0xbf4781e4	-0.7793257
12	0xbe8a907d	-0.2706336
13	0x3e0a7932	0.13522795
14	0x3ee9b87c	0.45648563
15	0xbf1e8758	-0.6192527
16	0xbe83532a	-0.25649387
17	0x3dacf8ca	0.0844589
18	0x3e0f37e7	0.13986169
19	0x3da1030a	0.07861908
20	0x3d2811cd	0.0410326
21	0x3ebfbbbf	0.37447926
22	0x3eecdb18	0.46260905
23	0x3e1d32c1	0.15351392
24	0xbe1b99ce	-0.1519539
25	0x3e8ea1ea	0.27857906
26	0xbd3309dd	-0.04371058
27	0xbec82f85	-0.39098755
28	0xbef1c9a1	-0.47224143
29	0xbe2b82c9	-0.1674911
30	0x3db6b3df	0.089210264
31	0xbef4448d	-0.4770855
32	0xbf328240	-0.69729996
33	0xbeba3691	-0.36369756
34	0x3e1c6473	0.15272693
35	0xbe561c47	-0.20909224
36	0xbf05b06c	-0.52222323
37	0xbea4ceb7	-0.3218896
38	0x3cd8deb8	0.026473388
39	0x3e2c7286	0.16840562
40	0xbf207f46	-0.62694204
41	0xbea82b39	-0.32845476
42	0x3e582319	0.21107139
43	0x3e1165db	0.14199011
44	0xbd86d3ec	-0.0658339
45	0xbdb6fd4a	-0.0893503
46	0x3e9d93ec	0.30776918
47	0x3e933349	0.28750065
48	0x3e06c3a4	0.13160568
49	0x3b9dbd4b	0.0048138252
50	0x3ea3ec7b	0.32016358
51	0x3e68497e	0.22684285
52	0x3db25bf4	0.08708945
53	0xbe1dd257	-0.1541227
54	0x3dbd5c0a	0.09246071
55	0x3eb73b65	0.35787502
56	0xbea3ebc7	-0.3201582
57	0xbebccf02	-0.36876684
58	0xbdf2e98d	-0.118609525
59	0x3e63e2b1	0.22254445
60	0xbd859d4a	-0.06524141
61	0xbf0444cf	-0.51667494
62	0xbe2ce27e	-0.16883275
63	0x3ec16de3	0.3777915
64	0x3ecf02eb	0.40431914
65	0xbe771ac2	-0.24131301
66	0xbce3b280	-0.027795076
67	0x3e2e62f8	0.17029941
68	0x3e90c54a	0.2827552
69	0x3dbf8c95	0.09352986
70	0x3e44d87a	0.19223204
71	0x3e360ff7	0.17779528
72	0x3ecb4df5	0.39707914
73	0x3e383bf4	0.1799162
74	0x3cfa392e	0.030544844
75	0xbe82bf62	-0.25536638
76	0xbed46387	-0.41482183
77	0xbf0c48a6	-0.5479835
78	0xbe9dc572	-0.308147
79	0xbe8aca9e	-0.2710771
80	0xbe4d7ca1	-0.20067073
81	0xbe87c520	-0.26517582
82	0xbf0e03fb	-0.55474824
83	0xbedc62e1	-0.4304419
84	0xbe99f3de	-0.30068868
85	0x3cd2e8ff	0.025745867
86	0x3f596d0b	0.8493201
87	0x3f969eee	1.1767251
88	0x3f241163	0.6408903
89	0xbd56ffbb	-0.052489977
90	0xbe81fdb8	-0.25388885
91	0xbef65242	-0.48109633
92	0xbea33b6d	-0.31881276
93	0xbef2c76b	-0.4741777
94	0xbeefb79f	-0.4681978
95	0x3f335c7c	0.70062995
96	0xbb71dc0e	-0.0036904844
97	0xbebed734	-0.37273562
98	0x3e62caa6	0.22147617
99	0x3f1d9b56	0.6156515
100	0x3e82d4f3	0.25553092
101	0x3d893683	0.066998504
102	0xbe6acbc9	-0.229293
103	0xbe2b1038	-0.16705406
104	0x3d3f5cf3	0.046719503
105	0x3d8c1016	0.06839006
106	0x3c933dcd	0.017973805
107	0xbcdc03c6	-0.026857268
108	0x3e11fc9d	0.1425652
109	0x3e6be087	0.23034869
110	0x3db7212b	0.08941873
111	0x3f9b4f53	1.2133583
112	0x3fbf0b0f	1.492525
113	0x3f93b878	1.154067
114	0x3e923548	0.28556275
115	0xbec777e3	-0.38958654
116	0xbf042f57	-0.51634735
117	0xbead709e	-0.33874983
118	0xbf03a7d1	-0.5142794
119	0xbf15be76	-0.58493745
120	0x3dd2aa05	0.10286335
121	0xbef1de31	-0.4723983
122	0xbf3b7426	-0.73224103
123	0xbe769be9	-0.24082913
124	0x3de0c8a2	0.10975768
125	0x3d1ab594	0.037770823
126	0xbe1f959e	-0.15584418
127	0xbec9e0ec	-0.39429414
128	0xbe5e857c	-0.21730608
129	0xbc510e25	-0.01275972
130	0x3c7e789d	0.015531686
131	0xbe02b67b	-0.12764923
132	0xbee21d42	-0.44162947
133	0xbe1fb9ec	-0.15598267
134	0x3ce472ce	0.027886774
135	0x3e3e9d9d	0.18614812
136	0x3f5aaa97	0.8541655
137	0x3f92048b	1.1407636
138	0x3f21f49f	0.6326389
139	0x3e1d443e	0.15358064
140	0xbe2949f8	-0.16532123
141	0xbe92ab7f	-0.28646466
142	0xbdde4ebe	-0.10854863
143	0xbf024808	-0.5089116
144	0xbee19cb3	-0.44064865
145	0x3eb70e63	0.35753164
146	0xbea0e2b3	-0.31422958
147	0xbeb92c79	-0.36166742
148	0xbdabdb0d	-0.0839139
149	0x3e9a8e80	0.30186844
150	0x3dad7ff4	0.08471671
151	0xbca23b77	-0.019803746
152	0xbce40b2b	-0.027837357
153	0x3e1ec9d4	0.15506679
154	0x3def97ff	0.11698913
155	0xbdc0be4f	-0.094112985
156	0xbe36a03b	-0.1783456
157	0xbe8e0dd8	-0.27744937
158	0xbe0dff3d	-0.13866897
159	0x3c973348	0.01845707
160	0x3d07895c	0.03308998
161	0xbeb500fa	-0.35352308
162	0xbef19547	-0.47184202
163	0xbe672f46	-0.22576627
164	0xbd3359e6	-0.043786906
165	0xbc86aa9e	-0.016438778
166	0xbed8d2eb	-0.42348418
167	0xbedb199a	-0.4279297
168	0xbe16f1e6	-0.14740714
169	0xbe40f43d	-0.1884317
170	0x3e2e47bd	0.17019553
171	0xbe6a69f4	-0.2289198
172	0xbe7d7639	-0.2475213
173	0xbe65f741	-0.22457601
174	0xbd92b9fe	-0.071643814
175	0xbeac521b	-0.33656392
176	0xbcd6c0f7	-0.02621506
177	0x3dc13254	0.094334275
178	0x3de0d145	0.10977415
179	0x3e5cfc81	0.21580698
180	0xbebb7197	-0.366101
181	0xbde40b73	-0.11134996
182	0x3de240ab	0.11047491
183	0x3e7de667	0.24794923
184	0x3ecbd38e	0.3980984
185	0xbea3d28d	-0.31996575
186	0xbcc46c9d	-0.023977572
187	0x3e1786a0	0.14797449
188	0x3e285975	0.16440375
189	0x3e82df90	0.2556119
190	0xbe64663e	-0.22304627
191	0xbd8eacb9	-0.06966538
192	0x3ca13e46	0.019683015
193	0x3e2a2da8	0.16618979
194	0x3e1b5d43	0.15172295
195	0xbd9171cb	-0.071017824
196	0xbe13824d	-0.14405175
197	0xbdcae5bc	-0.099070996
198	0x3e1fb3eb	0.15595977
199	0x3d5f2aa9	0.054484043
200	0x3dfcdc62	0.12346722
201	0x3e4f0250	0.20215726
202	0x3e941609	0.2892306
203	0x3e58d3bc	0.2117452
204	0xbe04d244	-0.12970835
205	0x3d6bf8e6	0.057610415
206	0x3e79d2b5	0.24396785
207	0x3eb27387	0.34853765
208	0x3e52e2a8	0.20594275
209	0xbdb1ab31	-0.0867523
210	0x3dae43a4	0.08508995
211	0x3eb6de87	0.3571665
212	0x3f10db33	0.5658447
213	0x3e838845	0.25689903
214	0xbe8093ca	-0.25112754
215	0x3e3f5453	0.18684511
216	0x3f002bbf	0.5006675
217	0x3f141aad	0.57853204
218	0x3e85d2a3	0.26137266
219	0x3d01fda8	0.031736046
220	0xbd5526f5	-0.052039105
221	0x3e78b2e2	0.24286988
222	0x3e3d2e53	0.18474703
223	0x3e296aab	0.16544597
224	0xbe77a739	-0.24184884
225	0x3e8f7727	0.28020594
226	0x3f3f099c	0.7462404
227	0x3f2cd223	0.67508143
228	0x3f0c98f4	0.5492089
229	0x3dfcb563	0.12339284
230	0x3ed7addf	0.4212484
231	0x3f5d2c2d	0.8639553
232	0x3f97dc34	1.1864076
233	0x3f803a32	1.001776
234	0x3f034474	0.51276326
235	0xbc99c78c	-0.01877191
236	0x3e589af5	0.21152861
237	0x3d3f221c	0.04666339
238	0x3e80c3a6	0.25149268
239	0x3d51f08f	0.051254805
240	0xbf10d64a	-0.5657698
241	0xbec7d999	-0.390332
242	0xbf1652da	-0.5872017
243	0xbef16075	-0.47143903
244	0xbe9426a1	-0.28935722
245	0xbf28731f	-0.6580066
246	0xbf15efa0	-0.58568764
247	0xbf1f1670	-0.6214361
248	0xbf3c2387	-0.7349171
249	0xbf2408e3	-0.6407606
250	0xbe9f59e3	-0.31123266
251	0xbe8d6309	-0.2761462
252	0xbecf5265	-0.4049255
253	0xbe10f263	-0.14154963
254	0xbed11740	-0.4083805
255	0xbef4371d	-0.47698298

bias f4 [6]
0	0xbf3c8e7f	-0.7365493
1	0xbebaf47d	-0.36514655
2	0x3f2cdad3	0.675214
3	0xbefbadb3	-0.4915596
4	0xbe912029	-0.2834485
5	0xbece4af9	-0.40291575

weight f4 [16, 6, 5, 5]
0	0xbed5b6c6	-0.41741008
1	0xbe3a365e	-0.18184802
2	0xbe3f3151	-0.18671156
3	0xbd6327cc	-0.055457875
4	0x3d200f2d	0.039076973
5	0xbe4aedfd	-0.19817348
6	0xbe71a9cb	-0.23599927
7	0x3d01db29	0.031703148
8	0xbd9a6aae	-0.07539879
9	0x3daf9825	0.08573941
10	0xbe960de9	-0.29307488
11	0xbdd1bb08	-0.102407515
12	0xbd8aee4e	-0.06783734
13	0x3ddff292	0.109349385
14	0xbd599d4f	-0.053128537
15	0xbe350a33	-0.17679672
16	0x3e228d1b	0.1587414
17	0xbd938da0	-0.07204747
18	0xbe4dba47	-0.2009059
19	0x3b075026	0.0020647137
20	0xbe38b811	-0.18038966
21	0xbc866fed	-0.016410792
22	0xbdf6ebe3	-0.120567106
23	0xbce53c9c	-0.027983002
24	0xbd29dd9d	-0.041471113
25	0xbedf8953	-0.43659458
26	0xbde6e9ac	-0.11275038
27	0xbe2f5685	-0.17122848
28	0x3e6f5deb	0.2337567
29	0x3e7c948a	0.24666038
30	0xbcee8401	-0.029115679
31	0xbe8fdce2	-0.28098208
32	0xbd993af4	-0.074819475
33	0xbcea1907	-0.028576387
34	0x3c9d1600	0.01917553
35	0x3e7f383b	0.24923794
36	0x3c1e02c5	0.009644215
37	0xbe1d70f2	-0.15375116
38	0xbe1b01ab	-0.15137355
39	0x3bb124d1	0.005406
40	0xbeab9c97	-0.33517906
41	0xbe03fdfe	-0.12889859
42	0x3e3d5662	0.18489984
43	0x3e7fadbe	0.24968621
44	0xbdbaffe2	-0.09130837
45	0xbef7a66e	-0.48369163
46	0xbe07792b	-0.13229816
47	0x3d11a836	0.03556081
48	0x3d626fa2	0.055282243
49	0x3d5c7d3f	0.05383038
50	0x3f130361	0.5742703
51	0x3ec83eff	0.39110562
52	0x3e51e1f7	0.20496355
53	0x3d7d6823	0.06186689
54	0x3d462ce1	0.048382644
55	0x3e032398	0.12806547
56	0xbdf5fd9b	-0.12011262
57	0xbdf1aaee	-0.118001804
58	0xbe155883	-0.14584546
59	0xbe636fe8	-0.22210658
60	0x3e221924	0.15829903
61	0xbe351c93	-0.17686681
62	0xbe0eafe4	-0.13934284
63	0xbcf0f51b	-0.02941375
64	0xbd07a33f	-0.033114668
65	0x3e6b3393	0.22968893
66	0x3cf560e8	0.029953435
67	0xbd2e7480	-0.04259157
68	0xbda1b8d6	-0.07896583
69	0xbd865668	-0.065594494
70	0x3ee18874	0.44049418
71	0x3ece9f07	0.40355703
72	0x3e8ac61f	0.2710428
73	0x3db79695	0.08964268
74	0xbd642bb2	-0.055705734
75	0xbe335f25	-0.17516764
76	0x3e6fee05	0.23430641
77	0xbb566060	-0.0032711253
78	0xbe8e041d	-0.27737513
79	0xbd5e6d31	-0.05430335
80	0xbe3fb16d	-0.18720026
81	0xbd386b6e	-0.045024328
82	0xbe343e09	-0.1760179
83	0x3db3f27f	0.08786487
84	0x3e95e09c	0.29272926
85	0xbccc8232	-0.024964426
86	0x3e379e8f	0.17931579
87	0x3cdaf069	0.026725965
88	0x3e41225c	0.18860763
89	0x3e3bf8a6	0.1835657
90	0xbe6220c1	-0.22082807
91	0xbdce4561	-0.10071827
92	0xbc90b01d	-0.017662102
93	0x3d27fee7	0.04101458
94	0x3d69d1a6	0.057084702
95	0xbe400f2a	-0.18755785
96	0xbe0e4407	-0.13893138
97	0x3d0f19c4	0.03493668
98	0xbd3d1998	-0.046166986
99	0xbb879559	-0.0041376767
100	0xbefedbf6	-0.49777192
101	0xbeb2af9a	-0.34899598
102	0xbd2e88f9	-0.042611096
103	0xbd8ccd73	-0.06875124
104	0xbd967185	-0.07345871
105	0xbe7d00a1	-0.24707271
106	0xbe94bf9e	-0.29052442
107	0xbea1d5d5	-0.31608453
108	0xbe4af7b0	-0.19821048
109	0xbe1fdb95	-0.15611108
110	0x3defeac0	0.11714697
111	0xbda1d521	-0.07901979
112	0xbdf2b8ff	-0.118516915
113	0xbe2eb2d7	-0.1706041
114	0xbe51a40a	-0.20472732
115	0x3e444d7e	0.19170186
116	0xbd97d261	-0.074131735
117	0xbdcfe843	-0.10151722
118	0xbe0320e3	-0.12805514
119	0xbe3962a6	-0.18104038
120	0x3e156cb3	0.14592247
121	0xbbf955ae	-0.007609091
122	0xbe23df0d	-0.16003056
123	0xbc2f8008	-0.010711677
124	0xbe261ec9	-0.16222681
125	0x3ea99284	0.33119595
126	0xbe6e870a	-0.23293701
127	0xbc176d79	-0.009242409
128	0x3e2360c4	0.15954882
129	0xbdb181f3	-0.08667364
130	0x3ee6ab8e	0.4505276
131	0x3ed7e68b	0.42168078
132	0xbdfcae29	-0.12337906
133	0xbea063a3	-0.31326017
134	0xbd83e25c	-0.06439659
135	0x3e828fa4	0.25500214
136	0x3eda04c3	0.42581758
137	0xbc0cdbc7	-0.008597321
138	0x3d950082	0.072754875
139	0xbb776554	-0.0037749605
140	0x3d268003	0.040649425
141	0x3bd10db9	0.0063798097
142	0x3e87e8ff	0.2654495
143	0x3e0917d1	0.13387991
144	0x3e7a4c34	0.24443132
145	0xbe73bbbe	-0.23802087
146	0xbe022698	-0.12710035
147	0x3e203ed2	0.15648964
148	0x3d91dd73	0.07122316
149	0x3c452487	0.012032635
150	0x3e90ec3a	0.28305227
151	0x3e8b9fa0	0.27270222
152	0x3e82be68	0.25535893
153	0x3e166fba	0.14691058
154	0xbcbd20a0	-0.023086846
155	0xbdc2a0cd	-0.095033266
156	0xbe57100d	-0.21002217
157	0xbd0962c1	-0.033541445
158	0x3e0a8491	0.13527133
159	0x3dfbca19	0.122944064
160	0xbcf54564	-0.029940315
161	0xbdfe1718	-0.124067485
162	0xbe992567	-0.29911348
163	0x3d5a0e5d	0.053236354
164	0x3e8a2fbe	0.2698955
165	0xbe18e545	-0.1493121
166	0xbdec2d55	-0.11532084
167	0xbea7ca43	-0.327715
168	0xbda268d0	-0.07930148
169	0x3e9d8fc6	0.30773753
170	0x3e3e2585	0.18569
171	0x3d0ac5b2	0.033879943
172	0xbe806590	-0.25077486
173	0xbe565cbc	-0.20933813
174	0x3d82b278	0.063816965
175	0x3d8f5e37	0.07000392
176	0xbdef2240	-0.116764545
177	0xbdfe1f86	-0.12408356
178	0x3e7f53c0	0.24934292
179	0x3d072e1b	0.033002954
180	0xbea81c69	-0.32834175
181	0x3dea9bf5	0.11455528
182	0xbd80d27f	-0.06290149
183	0xbee3db58	-0.44503284
184	0x3c13f643	0.009030881
185	0xbe906382	-0.28200918
186	0xbe93f532	-0.28898007
187	0x3cf11d9a	0.02943306
188	0x3dd026cd	0.10163651
189	0xbe722ba4	-0.2364946
190	0xbdb0c145	-0.08630613
191	0xbde977dd	-0.11399815
192	0xbdabf64f	-0.08396589
193	0xbd5d1855	-0.053978283
194	0xbe139274	-0.14411336
195	0x3d788806	0.060676597
196	0x3b85debc	0.00408539
197	0xbde8c4d8	-0.1136567
198	0xbd13ee75	-0.036116082
199	0xbdca599e	-0.09880374
200	0xbed16270	-0.40895414
201	0xbf02de0e	-0.5112008
202	0xbe747e77	-0.23876368
203	0xbdcc209c	-0.09967157
204	0x3e4a18fc	0.19736093
205	0xbdf0debe	-0.11761235
206	0xbe5ae982	-0.21378139
207	0xbec03ce7	-0.37546465
208	0xbeb7755f	-0.35831735
209	0x3e18555a	0.14876309
210	0xbd5b48e8	-0.053536326
211	0xbe003853	-0.12521486
212	0xbe0ca695	-0.13735421
213	0xbe9c26ea	-0.3049844
214	0xbd068d91	-0.032849852
215	0x3d7475d7	0.059682693
216	0x3d34daa5	0.04415383
217	0xbd3f1352	-0.046649285
218	0xbe4c9e9a	-0.19982377
219	0x3c50e2f0	0.012749419
220	0x3e7b9198	0.24567258
221	0x3dbf2847	0.09333854
222	0xbd23b1b5	-0.039964397
223	0xbe428aec	-0.18998307
224	0xbd5acf96	-0.053420626
225	0xbeab9a8c	-0.33516347
226	0xbe825ab3	-0.25459823
227	0x3e74016b	0.23828666
228	0x3f071c97	0.52778
229	0x3d57b445	0.052662153
230	0xbe0a99b9	-0.13535203
231	0xbe6fb0bb	-0.23407261
232	0xbf1fe687	-0.6246113
233	0x3da78837	0.08180278
234	0x3f1783ab	0.59185284
235	0xbda446c6	-0.080213115
236	0x3c876257	0.016526384
237	0xbe9e3ea2	-0.3090716
238	0xbed9fb8e	-0.42574733
239	0x3e491cc6	0.19639882
240	0xbd1c9319	-0.03822622
241	0x3c8cd01b	0.017189076
242	0xbdf1087c	-0.117691964
243	0xbe210eb2	-0.15728262
244	0xbdabd915	-0.083910145
245	0xbeb21fcf	-0.34789893
246	0xbd1a91bf	-0.03773665
247	0xbe18564b	-0.14876668
248	0xbe5e1067	-0.21685944
249	0xbe497015	-0.19671662
250	0x3c0fc4c2	0.008774938
251	0xbf050fd6	-0.5197729
252	0xbebd7929	-0.370065
253	0x3ebd2b38	0.36947036
254	0xbd139e59	-0.036039684
255	0xbdf6c3cc	-0.12049064

bias f4 [16]
0	0x3eb82cf1	0.35971788
1	0x3fa3f21d	1.2808262
2	0xbf1b32b2	-0.6062423
3	0x3f62d908	0.88612413
4	0xbea1afa1	-0.31579307
5	0xbf5ddce6	-0.8666519
6	0xbe0f59a9	-0.13999046
7	0xbd751059	-0.059830043
8	0xbfbecb80	-1.4905853
9	0x3f83e5e8	1.0304537
10	0x3fa4ee8b	1.2885298
11	0x3fade41e	1.3585241
12	0xbf778f64	-0.9670317
13	0x3fb92081	1.4463044
14	0xbf224900	-0.6339264
15	0xbf225031	-0.6340361

weight f4 [120, 400]
0	0xbbe57637	-0.0070026177
1	0xbd9079dc	-0.07054493
2	0xbd14c80f	-0.036323603
3	0xbd968302	-0.073492065
4	0xbd2f39b9	-0.042779658
5	0xbdbd4d75	-0.092432894
6	0xbdaf76f9	-0.08567614
7	0x3da0b2a7	0.07846575
8	0x3aab7464	0.0013080952
9	0xbd3c4497	-0.04596385
10	0xbda90fc8	-0.08254963
11	0x3bfddbae	0.007747135
12	0xbc30320e	-0.0107541215
13	0xbd580bcb	-0.05274562
14	0xbd2b29d4	-0.041787937
15	0x3d126505	0.03574087
16	0xbad5ebce	-0.0016320886
17	0xbd58f6bf	-0.05296969
18	0xbb415f58	-0.0029506292
19	0xbdcc071b	-0.09962293
20	0xbd523e72	-0.051329084
21	0xbda72ceb	-0.08162864
22	0xbcc14dfc	-0.023596756
23	0x3d7511cc	0.059831426
24	0xbd859620	-0.06522775
25	0x3d258d03	0.040417682
26	0x3e59639f	0.21229409
27	0x3e4d9688	0.20076954
28	0x3e027053	0.12738161
29	0x3cf2e60c	0.02965071
30	0xbdbdbf52	-0.09265007
31	0xbd6d563f	-0.05794358
32	0x3cda70b8	0.026665077
33	0x3e09f289	0.13471426
34	0x3d3bcf35	0.045851905
35	0xbd6efb5f	-0.058345195
36	0xbabe813e	-0.0014534367
37	0x3e13a8d2	0.14419869
38	0x3e36014d	0.17773934
39	0xbd5f85a4	-0.05457081
40	0x3e1cb72a	0.15304247
41	0xbc69f705	-0.014280085
42	0xbd903fc8	-0.07043415
43	0xbd7a68c7	-0.06113508
44	0xbd4a0248	-0.04931858
45	0x3dbff504	0.09372905
46	0x3df5d53a	0.1200356
47	0x3d697a05	0.057001133
48	0x3d6eebce	0.05833035
49	0x3e1cabdb	0.15299933
50	0xbcc92fed	-0.024558986
51	0xbbfb9cce	-0.0076786047
52	0xbd87bc8c	-0.06627759
53	0x3db26ef7	0.08712571
54	0x3db56f6b	0.08859142
55	0xbbc2856b	-0.005936315
56	0xbc95b6c9	-0.018275635
57	0x3d98b8aa	0.07457097
58	0xbc68826d	-0.014191252
59	0x3e348b49	0.17631258
60	0x3d9bdb28	0.0761016
61	0x3d4b57ea	0.04964439
62	0x3d63ff43	0.05566336
63	0xbbe9e114	-0.007137427
64	0x3d437fcb	0.047729295
65	0x3d3603da	0.044437267
66	0xbd895cf0	-0.067071795
67	0xbc470fd5	-0.012149771
68	0xbc8ec8b2	-0.017429683
69	0xbd9aa62d	-0.07551227
70	0x3e691cfb	0.22764961
71	0x3cc2edc5	0.023795018
72	0xbcfa0a82	-0.030522589
73	0xbd4b940a	-0.049701728
74	0x3cc9394a	0.02456345
75	0x3d7f7f65	0.062377352
76	0x3dbf035a	0.09326811
77	0x3dee0ca2	0.11623503
78	0x3dc7c8ef	0.09755122
79	0xbd4dee3a	-0.05027602
80	0x3d9940b1	0.07483042
81	0xbc918b54	-0.017766632
82	0x3de4d9a0	0.11174321
83	0xbd8f51a1	-0.06997991
84	0x3cc2979d	0.023753935
85	0x3d0881fa	0.03332708
86	0x3c4f5dd7	0.0126566505
87	0xbcd4efb6	-0.02599321
88	0xbdcb6d73	-0.09932985
89	0x3e195d2d	0.1497695
90	0x3c536e49	0.012904712
91	0xbd618583	-0.055058967
92	0x3d0a10dc	0.033707485
93	0xbb4f2ceb	-0.0031612467
94	0x3e00b269	0.12568058
95	0x3ddd58fe	0.108079895
96	0xbc271f44	-0.010200325
97	0x3d30caed	0.043162275
98	0xbc7c596d	-0.01540218
99	0xbc6b45d2	-0.014359908
100	0xbdb40dbc	-0.08791682
101	0x3d469088	0.04847768
102	0x3c127f57	0.008941493
103	0x3d278dc0	0.040906668
104	0xbd601348	-0.054705888
105	0x3dd0c8a8	0.10194522
106	0x3e0254d2	0.12727669
107	0xbdc7f5d6	-0.09763686
108	0xbe0afe26	-0.13573512
109	0xbe207b32	-0.15671995
110	0xbcb7d18d	-0.022438789
111	0x3ccc77c6	0.024959456
112	0xbcba808a	-0.02276637
113	0xbd9a068e	-0.075207815
114	0xbe105e29	-0.14098419
115	0xbd5d2d25	-0.05399813
116	0xbde81e16	-0.113338634
117	0xbe099f56	-0.13439688
118	0xbd50e4db	-0.050999504
119	0xbdb310ed	-0.08743463
120	0xbccbdbf7	-0.02488516
121	0xbe13f157	-0.14447533
122	0xbe3f7aa3	-0.18699126
123	0xbcfb24f8	-0.030657277
124	0xbbc6fcb0	-0.006072603
125	0x3e5a1ec9	0.21300806
126	0x3e0992b8	0.13434875
127	0x3e0a0abc	0.13480657
128	0x3e4d0cd9	0.20024432
129	0x3da52979	0.08064551
130	0x3dcd9a4e	0.10039197
131	0xbc51f492	-0.012814658
132	0xbdea1b50	-0.11430991
133	0xbdf5e4a4	-0.120065
134	0xbdb4a1c7	-0.08819919
135	0x3c006939	0.007837587
136	0xbde8a36c	-0.11359295
137	0xbdce0378	-0.10059255
138	0xbe2e1f8e	-0.17004225
139	0xbd4fbeed	-0.05071919
140	0xbdcf5bc5	-0.101249255
141	0x3e002333	0.12513427
142	0x3e08f7ff	0.13375853
143	0xbcfd8de5	-0.03095145
144	0xbe0c96ae	-0.13729355
145	0xbd6f8a89	-0.058481727
146	0xbdd99258	-0.10623616
147	0xbd855468	-0.0651024
148	0xbdbcebbd	-0.09224651
149	0xbd34e0ab	-0.044159573
150	0x3d9c778e	0.07639991
151	0x3d4fc017	0.0507203
152	0x3cafd9fd	0.02146625
153	0xbd7e6ff0	-0.06211847
154	0xbd8e8d2b	-0.069605194
155	0x3d84ad82	0.064784065
156	0xbdabd2f3	-0.08389845
157	0x3d227469	0.0396618
158	0x3d67a2a8	0.056551605
159	0x3e0aeb4f	0.13566326
160	0xbdfe634f	-0.12421285
161	0xbdb5c5f2	-0.08875646
162	0x3b93267d	0.004490672
163	0x3dd3dc44	0.10344747
164	0x3e2deaa8	0.16984046
165	0xbe3b8dc5	-0.183158
166	0xbd9bd422	-0.076088205
167	0xbdf7f908	-0.12108046
168	0xbdad1bef	-0.084525935
169	0x3e030882	0.12796214
170	0xbe44f16c	-0.1923272
171	0xbdeae387	-0.11469179
172	0x3c757d03	0.014983418
173	0xbd0bc896	-0.03412684
174	0x3ce5d36e	0.02805492
175	0xbce501a8	-0.027954891
176	0xbd71bf7f	-0.059020516
177	0xbdaac0db	-0.083375655
178	0x39748502	0.00023319203
179	0x3c8b9637	0.017039401
180	0x3ac96d55	0.0015367666
181	0x3d71ba7e	0.059015743
182	0x3ce46711	0.027881177
183	0xbdda6a3a	-0.10664792
184	0xbd823af3	-0.063589
185	0xb9f609ec	-0.0004692817
186	0x3b85ffa9	0.004089315
187	0xbcca1e87	-0.02467276
188	0xbcc47e27	-0.023985935
189	0x3d7e8453	0.062137913
190	0xbdc850b6	-0.097810194
191	0x3cdca4ad	0.026933992
192	0xbdd9d300	-0.10635948
193	0xbc1c241c	-0.0095300935
194	0x3d96011a	0.07324429
195	0x3c7e369d	0.0155159505
196	0xbe1e39e3	-0.1545177
197	0xbdd469f9	-0.10371775
198	0xbd80aecc	-0.0628334
199	0x3cbb54b4	0.022867538
200	0xbe85e960	-0.26154613
201	0xbd334d4b	-0.043774884
202	0x3d055836	0.032554828
203	0xbe304b4b	-0.17216222
204	0xbda3e814	-0.0800325
205	0xbe3aac14	-0.18229705
206	0xbd4bab89	-0.049724136
207	0xbdbeff67	-0.09326058
208	0xbdf66cab	-0.120324455
209	0x3d823b71	0.06358994
210	0xbc9d1906	-0.019176971
211	0xbbdcedc3	-0.0067422106
212	0xbd8a86a5	-0.06763963
213	0xbd84041e	-0.06446098
214	0xbd847956	-0.064684555
215	0xbd47d0de	-0.048783176
216	0xbca305e8	-0.019900277
217	0xbd3038e2	-0.043022998
218	0xbc847f39	-0.016173946
219	0xbdd1e642	-0.10248996
220	0xbcaa1aa5	-0.020764658
221	0xbd188143	-0.03723265
222	0xbd8c3745	-0.06846479
223	0xbe0ea13a	-0.1392869
224	0xbd4f8247	-0.05066135
225	0x3d5b4add	0.053538192
226	0x3d401c3a	0.04690192
227	0x3e201ff9	0.15637197
228	0x3dfb2b8f	0.122641675
229	0x3d8331b6	0.06405966
230	0xbd16a1b3	-0.036775302
231	0x3db6181d	0.08891318
232	0xbd8b4db0	-0.06801927
233	0xbd5d4d2a	-0.054028668
234	0xbdb1c537	-0.08680194
235	0x3dbed685	0.0931826
236	0x3d776aea	0.060404696
237	0xbd28f4e6	-0.04124918
238	0xbe16f4e3	-0.14741854
239	0xbce7a94c	-0.02827897
240	0x3ca1066a	0.019656379
241	0xbe35e9b7	-0.17764936
242	0xbdafd8d9	-0.08586282
243	0xbe2e4545	-0.17018612
244	0x3dc7154f	0.09720861
245	0x3d291421	0.041278962
246	0xbd849597	-0.064738445
247	0xbcf65c34	-0.030073263
248	0xbca6a59e	-0.020342644
249	0xbda70097	-0.081544094
250	0xbd5c799b	-0.05382691
251	0xbded9039	-0.11599774
252	0xba38f5ef	-0.000705569
253	0x3d6c50b0	0.057694137
254	0xbda5593e	-0.08073662
255	0xbe00a4c9	-0.1256286

bias f4 [120]
0	0x3eb6103d	0.35559264
1	0x3c21780e	0.009855283
2	0x3e1ce801	0.15322877
3	0xbd9693fd	-0.07352445
4	0x3e4a0bb6	0.1973103
5	0x3e084490	0.13307405
6	0xbb1539e4	-0.0022770101
7	0xbd87e7d8	-0.066360176
8	0x3c6e1fec	0.014533978
9	0xbc33a97b	-0.0109657
10	0x3c48169b	0.012212421
11	0x3dbf702d	0.09347568
12	0xbdedb1cf	-0.1160618
13	0x3e89ed20	0.26938725
14	0x3e119124	0.14215523
15	0xbe1395a1	-0.14412548
16	0x3d5d6ac4	0.054056898
17	0xbe21ecb8	-0.15812957
18	0x3e825761	0.2545729
19	0xbdfb853a	-0.1228127
20	0x3e150710	0.14553475
21	0x3e41b38c	0.18916148
22	0x3e30310d	0.17206211
23	0x3e4ce25f	0.20008229
24	0xbe08f111	-0.1337321
25	0x3e29d0d2	0.16583565
26	0x3d7b6cb0	0.06138295
27	0x3daf6545	0.085642375
28	0x3e0f6f6c	0.14007348
29	0xbda55fa6	-0.08074884
30	0x3ed66cee	0.41879982
31	0xbd98155b	-0.07425948
32	0x3e4ff998	0.20310056
33	0xbd89f07d	-0.067353226
34	0xbd9d023c	-0.07666442
35	0x3dee53ee	0.11637102
36	0xbc12e77c	-0.008966323
37	0x3ea0610e	0.31324047
38	0x3e17e744	0.14834315
39	0x3e9765d3	0.29569873
40	0xbc9be136	-0.019028287
41	0xbdc03797	-0.09385603
42	0x3e1356c0	0.14388561
43	0x3b841620	0.004030958
44	0x3e6f8089	0.23388876
45	0xbe196dc9	-0.14983286
46	0x3e301694	0.17196113
47	0x3e671cc0	0.22569561
48	0x3e07f580	0.13277245
49	0x3d4b5b5a	0.049647667
50	0x3bac2608	0.005253557
51	0x3d8435f1	0.06455601
52	0xbd5ce3cc	-0.05392818
53	0xbd4873b9	-0.048938487
54	0xbc7f293f	-0.015573799
55	0xbd001f79	-0.031280015
56	0xbd501ac4	-0.050806776
57	0xbe450b09	-0.19242491
58	0x3de584a8	0.11206943
59	0xbe1b4f8e	-0.15167066
60	0xbbae7125	-0.0053235465
61	0xbcc9f75e	-0.024654087
62	0x3d00f411	0.03148276
63	0xbd787994	-0.06066282
64	0xbe7b3d4b	-0.245351
65	0xbe1e657c	-0.154684
66	0x3c95d4d2	0.018289957
67	0x3d9ee71c	0.07758924
68	0xbd4f4127	-0.050599243
69	0x3de88b9d	0.11354754
70	0xbd5295c3	-0.051412355
71	0x3e885cdf	0.26633355
72	0x3e820754	0.25396216
73	0x3b203768	0.0024447087
74	0x3d938eb2	0.07204951
75	0xbd277b44	-0.04088904
76	0x3e23b082	0.15985301
77	0x3e30cc5a	0.17265454
78	0x3e52b724	0.20577675
79	0x3bafe8da	0.0053683342
80	0x3daf52a0	0.08560681
81	0x3e5d50d0	0.21612859
82	0x3e3c1d34	0.18370515
83	0xbe186610	-0.14882684
84	0x3e1dda37	0.15415274
85	0x3d4b4045	0.04962184
86	0xbbc777f6	-0.0060872985
87	0xbdc2ce12	-0.09511961
88	0x3d16435f	0.036685344
89	0x3dbf02f5	0.09326736
90	0x3d973c87	0.073845915
91	0xbd70f4bb	-0.058827143
92	0x3b752532	0.0037406203
93	0xbd47fd23	-0.048825394
94	0xbe7fbcbb	-0.24974339
95	0xbd265d6d	-0.04061644
96	0x3e5443f3	0.20729046
97	0x3bf500a3	0.0074768825
98	0xbb371731	-0.0027937407
99	0xbba52773	-0.005040103
100	0x3e9e0420	0.30862522
101	0xbdce5e6f	-0.100766055
102	0xbd1934ab	-0.037403744
103	0xbda1a53a	-0.078928426
104	0xbda0416d	-0.07824979
105	0x3ea69166	0.32532805
106	0x3dd46512	0.1037084
107	0xbe0cc9c8	-0.13748848
108	0xbbe694b7	-0.007036771
109	0x3d0ea133	0.0348217
110	0xbd7c96eb	-0.061667364
111	0x3c44ef86	0.012019997
112	0xbcd4ee4d	-0.025992537
113	0x3db0a64e	0.0862547
114	0xbd912001	-0.070861824
115	0x3de0ab6c	0.10970196
116	0x3db49909	0.08818252
117	0xbdbee0f7	-0.093202524
118	0xbe1d273d	-0.15347
119	0x3d33b0f1	0.043869916

weight f4 [84, 120]
0	0xbe66d5a8	-0.22542441
1	0x3dbba885	0.09163002
2	0xbde7f571	-0.11326111
3	0x3cd3ef85	0.025871048
4	0x3dabce1d	0.08388922
5	0xbc8cbd5d	-0.01718014
6	0x3e20f3d8	0.15718019
7	0xbe0a16b3	-0.13485222
8	0xbe11f267	-0.14252625
9	0x3de1b602	0.11021043
10	0x3c0ba638	0.008523516
11	0xbd9deb20	-0.07710862
12	0xbcbc0fcc	-0.022956751
13	0xbd439c88	-0.0477567
14	0xb9959464	-0.00028530054
15	0xbde59fc4	-0.112121135
16	0x3d9c1f46	0.076231524
17	0xbcdef44e	-0.027216103
18	0xbe3fffce	-0.18749925
19	0xbc8b9d38	-0.017042741
20	0xbd61f7e5	-0.05516805
21	0xbd047d5d	-0.03234612
22	0xbd327176	-0.043565236
23	0xbdaa1797	-0.08305281
24	0x3bfe04b1	0.007752024
25	0xbe83195d	-0.25605288
26	0xbe30fd46	-0.17284116
27	0x3c6c39e4	0.014418099
28	0x3d970ae0	0.07375121
29	0x3adbcfb3	0.0016770273
30	0x3e0c7f17	0.13720356
31	0xbd9795d8	-0.07401627
32	0xbdfaa326	-0.12238149
33	0x3e4a5eae	0.1976268
34	0x3db84ff8	0.08999628
35	0xbd0046a5	-0.031317372
36	0xbd4dfa0d	-0.050287295
37	0x3d1de36f	0.038546976
38	0xbe275282	-0.16340068
39	0x3da8fb9c	0.08251116
40	0xbe1be9f3	-0.15225963
41	0xbdf7fff2	-0.121093646
42	0xbc0682f4	-0.008209933
43	0xbd89e915	-0.0673391
44	0xbdcd4525	-0.10022954
45	0x3cd61bc9	0.026136296
46	0xbd36fe98	-0.044676393
47	0xbd657913	-0.05602367
48	0xbd8285d9	-0.06373186
49	0x3dd4cb42	0.10390331
50	0x3e2de02d	0.16980048
51	0xbdc6c5c0	-0.097056866
52	0xbd4cd288	-0.050005466
53	0x3c18f373	0.009335387
54	0xbc44efbb	-0.012020047
55	0xbc6b3141	-0.014355005
56	0xbd51eef3	-0.05125327
57	0xbdd5c523	-0.104379915
58	0x3de9a3f5	0.114082254
59	0x3c7ab776	0.01530253
60	0xbddfc0fc	-0.10925481
61	0x3d421ff9	0.047393773
62	0xbd3f7049	-0.046737943
63	0xbdb6a587	-0.089182906
64	0xbdb6ee0f	-0.08932125
65	0xbe3d4cc4	-0.18486315
66	0x3e269588	0.16267979
67	0xbcdf9796	-0.027293961
68	0x3e90a24b	0.2824882
69	0xb991b228	-0.00027789292
70	0xbdcc304b	-0.09970149
71	0xbbe5d48f	-0.0070138643
72	0xbce2a614	-0.027667083
73	0xbdeee688	-0.11665064
74	0xbc9a5020	-0.018837035
75	0xbcc409cb	-0.02393045
76	0xbd074bbc	-0.03303121
77	0xbd97f521	-0.074198015
78	0xbdc48fc6	-0.09597735
79	0xbce825df	-0.02833837
80	0x3dedfd97	0.11620634
81	0xbd9dc54b	-0.07703646
82	0xbe1678ed	-0.14694567
83	0xbdcbb93c	-0.0994744
84	0xbd2824b0	-0.041050613
85	0xbbf8d9e5	-0.0075943344
86	0xbd6ecbcc	-0.058299825
87	0xbdc120bb	-0.09430071
88	0xbcb48de1	-0.02204031
89	0xbbb1e26f	-0.0054286043
90	0xbd6c1087	-0.05763295
91	0xbab93fe9	-0.0014133427
92	0x3d093da0	0.033506036
93	0x3d1d51fb	0.03840826
94	0xbd273119	-0.040818308
95	0x3d943ea1	0.07238508
96	0xbdfd3f7c	-0.12365624
97	0xbc22a15d	-0.009926167
98	0x3d71f84b	0.05907468
99	0x3cf9b075	0.03047965
100	0x3d8e9ff7	0.069641046
101	0x3c8400e7	0.016113712
102	0x3d1cba1f	0.038263436
103	0xbe0fb14b	-0.14032476
104	0xbd463b36	-0.04839631
105	0xbe64eece	-0.22356722
106	0xbd38ea90	-0.04514557
107	0xbd8a5c1a	-0.06755848
108	0x3be9fc2d	0.0071406574
109	0xbe36595d	-0.17807527
110	0xbb0c3f63	-0.0021400086
111	0x3cb43266	0.021996688
112	0xbd0ba16d	-0.034089494
113	0x3db2776b	0.087141834
114	0xbe0c09ef	-0.13675664
115	0xbe41546b	-0.18879859
116	0xbdb8ad94	-0.090174824
117	0xbc477ded	-0.012176019
118	0x3af05074	0.0018334524
119	0x3e194247	0.14966689
120	0xbe2fe787	-0.17178164
121	0xbd520836	-0.05127736
122	0xbd7d6614	-0.061864927
123	0x3ca98425	0.020692894
124	0x3dc58699	0.09644813
125	0xbdf35c61	-0.11882854
126	0xbe150eaa	-0.14556375
127	0xbe2ab520	-0.16670656
128	0x3c9a23bf	0.018815873
129	0xbea7c5df	-0.3276815
130	0x3d7305e5	0.059331793
131	0x3dc4082c	0.09571871
132	0xbd855b7b	-0.06511589
133	0x3e2c4090	0.16821504
134	0x3e8e6429	0.2781079
135	0x3e2e84fb	0.17042916
136	0xbd43bec5	-0.047789354
137	0xbb919d14	-0.004443774
138	0x3c70b105	0.014690642
139	0xbedb9d37	-0.42893383
140	0xbe210563	-0.15724711
141	0xbc158371	-0.009125576
142	0x3cf2b909	0.029629247
143	0xbda63b35	-0.081167616
144	0x3da8dbec	0.08245072
145	0xbd2b9db7	-0.041898455
146	0x3df9d0a0	0.12197995
147	0xbe2bd9c8	-0.16782296
148	0x3d5aa93e	0.05338406
149	0x3da527bf	0.080642216
150	0xbd767f81	-0.06018019
151	0x3e7241e9	0.23657955
152	0x3dea6923	0.114458345
153	0xbd51facd	-0.051264573
154	0xbd48982a	-0.04897324
155	0x3c9f6588	0.019457594
156	0xbea1ffd9	-0.3164051
157	0xbd8a0ed6	-0.06741111
158	0x3e819869	0.25311592
159	0xbde62e3b	-0.112392865
160	0x3c55a63b	0.013040121
161	0xbe3e8a3e	-0.18607423
162	0x3daf8bc6	0.085715815
163	0x3d7383f5	0.059452016
164	0xbdf8794a	-0.12132509
165	0xbd44da8b	-0.04805998
166	0xbd64b04b	-0.05583219
167	0x3d75e7cb	0.060035508
168	0x3de323fc	0.11090848
169	0x3d0f983f	0.035057303
170	0xbe17c4bc	-0.14821142
171	0x3d24f9d7	0.04027733
172	0x3d695b11	0.056971613
173	0x3cf3ea8b	0.029774925
174	0x39cc17ff	0.0003892779
175	0xbdf6ee96	-0.120572254
176	0xbdcefee5	-0.10107211
177	0xbe2a9678	-0.16658962
178	0x3e1bd4ad	0.15217848
179	0x3d4720ad	0.048615146
180	0xbe2628cc	-0.162265
181	0x3da0cdfa	0.07851787
182	0xbe2692a4	-0.16266876
183	0xbe047163	-0.12933879
184	0x3d8248d8	0.0636155
185	0x3cee0b32	0.029058073
186	0xbe8ebcfb	-0.27878556
187	0x3d0e4ea0	0.03474295
188	0xbd9c2731	-0.07624663
189	0x3d024bb0	0.031810462
190	0xbdd1ab36	-0.10237734
191	0xbcb5cdca	-0.022192854
192	0x3d1a39f4	0.037652925
193	0x3d6337f4	0.055473283
194	0xbd2ec98e	-0.042672686
195	0x3d806bb2	0.06270541
196	0x3da68bb4	0.08132115
197	0xbda019a8	-0.078173935
198	0x3be89f1d	0.007099046
199	0x3d832949	0.06404359
200	0x3e5a65b7	0.21327864
201	0x3ddd7a2f	0.1081432
202	0xbdcbd260	-0.09952235
203	0xbe7da8fe	-0.24771497
204	0xbdd84152	-0.10559334
205	0x3b653b9c	0.0034978157
206	0x3d58cb19	0.052928064
207	0x3d8a603c	0.067566365
208	0x3d95b687	0.07310205
209	0x3ceffe95	0.029296199
210	0xbd7e8615	-0.06213959
211	0x3d03aa12	0.032144614
212	0x3d35111f	0.04420578
213	0xbd713630	-0.058889568
214	0x3c1c5043	0.00954062
215	0x3e6356ad	0.22201033
216	0xbd990b50	-0.07472861
217	0xbcb945e7	-0.02261634
218	0x3c132b38	0.008982472
219	0xbdd1f129	-0.10251076
220	0xbc8c32b8	-0.017114028
221	0xbdd56791	-0.10420144
222	0xbe154294	-0.14576179
223	0xbced76fd	-0.028987402
224	0x3d77a36f	0.060458597
225	0xbe45cd40	-0.19316578
226	0x3e1f0700	0.15530014
227	0x3bedc72a	0.007256408
228	0x3bfce38c	0.0077175554
229	0xbe00363e	-0.12520692
230	0x3d6958d9	0.056969497
231	0x3cbc84cc	0.023012541
232	0x3da44b40	0.08022165
233	0x3d5cbc9a	0.053890802
234	0x3d606974	0.054788068
235	0x3c0e2850	0.008676603
236	0x3e5162d3	0.20447855
237	0x3e0b7f1f	0.13622712
238	0xbe163098	-0.14666975
239	0xbe20ef81	-0.15716363
240	0x3da595e2	0.080852285
241	0xbd47b503	-0.04875661
242	0x3e1dff0a	0.15429321
243	0xbe2133ca	-0.15742412
244	0x3e39a09e	0.18127677
245	0x3e3472cf	0.17621921
246	0xbd7ec598	-0.06220016
247	0x3c96c97c	0.018406622
248	0x3c7955ab	0.015218179
249	0xbd657511	-0.056019846
250	0xbe41c161	-0.18921424
251	0x3de62a4b	0.112385355
252	0xbbbbfff8	-0.005737301
253	0xbd9b350e	-0.07578479
254	0x3d4c0ddb	0.0498179
255	0x3d161bfd	0.036647785

bias f4 [84]
0	0x3c4f5d37	0.0126565015
1	0x3f0be7a7	0.5465035
2	0xbd15ca4a	-0.03656987
3	0x3edd18a5	0.43182865
4	0x3ecd8ee7	0.40148088
5	0xbdc372da	-0.095433906
6	0xba88573b	-0.0010401973
7	0xbcafa26a	-0.02143975
8	0x3daec586	0.08533768
9	0x3ee86469	0.45389107
10	0xbe7d2589	-0.2472135
11	0x3d924d23	0.07143619
12	0xbcaeaea6	-0.021323513
13	0xbd1efcc3	-0.03881527
14	0xbcaa4202	-0.020783428
15	0x3ea05144	0.31312
16	0x3e9697a0	0.29412556
17	0x3f1413f4	0.57842946
18	0x3c31428b	0.010819088
19	0xbe1b3cbc	-0.15159887
20	0x3d8b81cb	0.068118654
21	0x3d4ccadf	0.04999816
22	0x3ce018d3	0.027355587
23	0xbd4bd288	-0.049761325
24	0x3eb29171	0.34876588
25	0x3d6f3049	0.058395658
26	0x3d00cb1f	0.03144371
27	0xbdd9caf5	-0.10634414
28	0x3f2fde3d	0.68698484
29	0x3d8bd746	0.068281695
30	0x3eb6002a	0.35547
31	0xbd374714	-0.04474552
32	0x3e222a54	0.1583646
33	0xbc19a94b	-0.0093787415
34	0x3de32ad5	0.11092154
35	0x3dd20375	0.102545656
36	0x3e9e0347	0.30861875
37	0x3ea1f5c3	0.31632814
38	0x3dc56bf2	0.096397296
39	0x3e1b6566	0.15175399
40	0x3e8de9ca	0.2771743
41	0x3e953792	0.2914396
42	0xbcc8438f	-0.024446277
43	0x3eb6b77d	0.35686865
44	0x3e61a2da	0.22034779
45	0x3e1943f6	0.14967331
46	0x3ee3e3dd	0.44509783
47	0xbbdff185	-0.0068342113
48	0x3f583b3d	0.8446539
49	0x3d35de8b	0.044401687
50	0xbd6aa925	-0.057290215
51	0x3e8dccf8	0.2769544
52	0xbdaa7370	-0.08322799
53	0x3ee54bea	0.4478448
54	0xbde23083	-0.11044409
55	0x3e2cd468	0.16877902
56	0x3dd06180	0.10174847
57	0x3e1c3c03	0.15257268
58	0xbde56231	-0.11200369
59	0xbddbc6cb	-0.10731276
60	0x3f836a8b	1.0266889
61	0x3e96c1e6	0.29444808
62	0xbe319edd	-0.17345758
63	0xbe05c097	-0.13061748
64	0x3ef703bd	0.4824504
65	0x3ec1d839	0.37860277
66	0xbc5f469e	-0.013627676
67	0x3d964087	0.07336526
68	0xbd1f2437	-0.038852897
69	0x3ea6d794	0.32586348
70	0x3eaf353b	0.342203
71	0xbe583f7d	-0.21117969
72	0x3d45e268	0.04831162
73	0x3d60b8f3	0.05486388
74	0xbddfcc61	-0.10927654
75	0x3eaeb666	0.34123534
76	0x3e8c1c88	0.27365518
77	0x3e3deb71	0.18546845
78	0x3eaa6879	0.3328283
79	0x3d5d897b	0.05408619
80	0xbd2bb759	-0.0419229
81	0x3e052503	0.130024
82	0x3cf3660e	0.02971175
83	0x3e0153e2	0.12629655

weight f4 [10, 84]
0	0x3dc8dea4	0.0980809
1	0x3e807037	0.25085613
2	0x3dc25e2a	0.094906166
3	0x3d353c1f	0.04424679
4	0x3df09f87	0.117491774
5	0xbdecbc5a	-0.11559363
6	0x3d9556a6	0.072919175
7	0x3e7cc396	0.24683985
8	0x3d818617	0.06324404
9	0x3d2f1f31	0.042754356
10	0x3db4a763	0.08820989
11	0xbc9d1306	-0.01917411
12	0x3d6846b0	0.056708038
13	0x3d8ac5ee	0.06776033
14	0xbdb2ab69	-0.087241
15	0x3e3126a5	0.17299898
16	0xbe4ceb60	-0.20011663
17	0xbdf18ed6	-0.11794822
18	0x3e94ed4e	0.290873
19	0x3d0645aa	0.03278128
20	0xbd9c8bf6	-0.07643883
21	0xbe1d74e9	-0.15376629
22	0x3cc1ecfe	0.023672577
23	0xbd11f486	-0.035633586
24	0xbe8b5506	-0.27213305
25	0x3e983a67	0.29732057
26	0x3e5d2d07	0.21599208
27	0xbcddf051	-0.02709213
28	0xbe33bc27	-0.17552243
29	0xbe15e214	-0.14637023
30	0x3dcb791e	0.09935211
31	0xbde53163	-0.111910604
32	0xbde6c032	-0.11267127
33	0xbdeedbf5	-0.11663047
34	0x3e206c96	0.15666422
35	0xbdb8d427	-0.0902484
36	0xbe2e7202	-0.17035678
37	0xbe6649db	-0.22489111
38	0x3e56d220	0.20978594
39	0xbe3262a9	-0.17420448
40	0xbd3a230b	-0.045443576
41	0xbe864066	-0.26221007
42	0xbe2cf51e	-0.1689038
43	0x3d74b6a9	0.05974451
44	0x3e045e52	0.12926605
45	0x3def0ba4	0.11672142
46	0xbde5e35a	-0.112250045
47	0xbd977d55	-0.07396952
48	0xbec23663	-0.3793212
49	0x3c88e6a5	0.016711542
50	0xbe1084ef	-0.1411321
51	0x3da3dcf1	0.080011256
52	0x3e23bb81	0.15989496
53	0x3e2d872b	0.16946094
54	0xbd032fdf	-0.032028075
55	0xbc8ca5d6	-0.01716892
56	0x3e162a1e	0.14664504
57	0x3db43d4c	0.08800754
58	0x3df721b7	0.120669775
59	0xbc9d9461	-0.019235792
60	0xbe512074	-0.20422536
61	0x3e00d866	0.1258255
62	0x3e31db6d	0.1736886
63	0xbd910d4f	-0.070826165
64	0xbe7fbe18	-0.24974859
65	0xbd915c6a	-0.07097705
66	0x3e68486a	0.22683874
67	0x3db653f6	0.08902733
68	0x3d810afa	0.06300922
69	0x3daaa097	0.08331411
70	0xbe4fc94b	-0.20291631
71	0x3df8aba2	0.12142111
72	0xbc711e74	-0.014716733
73	0xbbff4aec	-0.007790914
74	0xbe046070	-0.12927413
75	0x3cc2bcec	0.023771726
76	0xbdd74adc	-0.10512325
77	0xbd8dca37	-0.06923335
78	0x3e0bcc2a	0.13652101
79	0x3e237b0c	0.15964907
80	0xbdf4c92b	-0.11952432
81	0x3d4e1f96	0.05032309
82	0x3e2d8765	0.1694618
83	0xbd64dc51	-0.055874173
84	0xbd0a4081	-0.033752922
85	0xbd488405	-0.04895403
86	0xbe678cef	-0.22612356
87	0xbe192c5e	-0.14958331
88	0x3e4c197b	0.19931595
89	0xbdd37f47	-0.103270106
90	0xbd327b01	-0.043574337
91	0xbdd7d314	-0.10538307
92	0xbd32e149	-0.04367188
93	0xbc1a1b33	-0.009405899
94	0xbe04c853	-0.12967043
95	0x3d99864e	0.0749632
96	0x3e731095	0.23736794
97	0x3dadf650	0.08494246
98	0x3e36b69b	0.17843096
99	0xbe4ca022	-0.19982961
100	0xbed20b51	-0.4102426
101	0xbe89a920	-0.26886845
102	0x3c8e6266	0.017380904
103	0x3e0cb168	0.1373955
104	0x3caec45f	0.021333871
105	0xbc01d3bf	-0.007924019
106	0x3d5133eb	0.051074903
107	0xbe0ed634	-0.139489
108	0x3e67e6c2	0.22646621
109	0x3ea5d112	0.3238607
110	0x3e886ecf	0.2664704
111	0x3e4424f7	0.19154726
112	0x3d82a53f	0.063791744
113	0xbddac6ad	-0.10682426
114	0x3e006552	0.1253865
115	0xbde9f2dc	-0.11423275
116	0x3e36c560	0.1784873
117	0x3e5d732c	0.21625966
118	0xbb8cf34a	-0.0043014633
119	0x3e745975	0.2386225
120	0xbe78f1cb	-0.24310987
121	0xbd5954b7	-0.053059306
122	0x3e9ecfde	0.31017965
123	0x3cf47035	0.02983866
124	0xbe65f9cc	-0.22458571
125	0xbe969aba	-0.29414922
126	0x3df383d8	0.118903816
127	0xbdeeb95d	-0.11656449
128	0xbe8ed9da	-0.27900583
129	0xbcdacff1	-0.026710482
130	0x3c9fbdca	0.019499678
131	0xbcd28e64	-0.025702663
132	0xbdd09e90	-0.101864934
133	0x3dce14d0	0.100625634
134	0x3db2c303	0.08728602
135	0xbe591bc2	-0.21201995
136	0xbc9550c1	-0.018226983
137	0x3e3e7481	0.1859913
138	0xbe0c4d4c	-0.13701361
139	0xbcc7a6d8	-0.02437155
140	0xbde92fba	-0.11386056
141	0xbe72dd3f	-0.23717211
142	0x3e4fdda8	0.20299399
143	0xbcf7a154	-0.030228294
144	0xbedf5b16	-0.4362418
145	0x3e38c9ed	0.18045779
146	0x3e3dba5b	0.1852812
147	0x3cb94783	0.022617107
148	0xbe7b108c	-0.24518031
149	0x3ea12af9	0.31478098
150	0x3df7c5b2	0.12098254
151	0xbda78ca1	-0.0818112
152	0xbdc2cabf	-0.09511327
153	0xbe2394d6	-0.15974745
154	0x3e1941ad	0.1496646
155	0x3dca0656	0.0986449
156	0x3de08189	0.10962207
157	0xbe58f2a6	-0.21186313
158	0x3d9dadd3	0.0769917
159	0xbb45dd1c	-0.0030191606
160	0xbd319a23	-0.043359887
161	0xbeb8a333	-0.3606201
162	0xbec53ddd	-0.3852376
163	0x3e23455b	0.15944426
164	0xbe6bf400	-0.23042297
165	0xbc7c6a5e	-0.015406219
166	0xbdaa4798	-0.08314437
167	0x3d19cda2	0.037549622
168	0xbdc9d283	-0.09854605
169	0xbd8d438a	-0.06897648
170	0x3e3b0c12	0.18266323
171	0x3dea56b9	0.11442322
172	0x3d6a1a49	0.057153974
173	0x3dfb9a86	0.122853324
174	0xbcf95a63	-0.030438608
175	0x3d66f9ac	0.05639045
176	0x3c9261fa	0.017868984
177	0xbe62696d	-0.22110529
178	0x3e429a44	0.1900416
179	0xbd233840	-0.039848566
180	0xbdcadcdb	-0.09905406
181	0x3da8485a	0.08216925
182	0x3d65300b	0.05595402
183	0x3daa70e3	0.08322313
184	0x3e839412	0.25698906
185	0x3cedf059	0.02904527
186	0x3e24f3bd	0.16108604
187	0x3e879ea3	0.26488218
188	0xbd8139d9	-0.06309862
189	0x3e310228	0.17285979
190	0x3df0b8d5	0.11754004
191	0xbe31af01	-0.17351915
192	0xbc4141e6	-0.011795497
193	0xbdbe8af3	-0.09303846
194	0xbdaf5088	-0.08560282
195	0x3defb4b4	0.11704388
196	0x3e7d3eb0	0.24730945
197	0xbe74fd15	-0.23924668
198	0xbe2a9a5d	-0.16660447
199	0xbe043174	-0.1290949
200	0x3e444ddf	0.1917033
201	0x3d59a637	0.05313703
202	0x3e8b676f	0.2722735
203	0x3c5b9c7c	0.013404008
204	0xbde5cbd7	-0.1122052
205	0xbe3823ca	-0.17982402
206	0xbd99f5c2	-0.07517578
207	0x3e119a71	0.14219071
208	0x3e89ea59	0.26936606
209	0x3ea28a16	0.31745976
210	0xbd31042e	-0.043216877
211	0xbe11ec82	-0.14250377
212	0xbd27c888	-0.040962726
213	0xbe10f889	-0.14157309
214	0x3d70c41f	0.058780786
215	0x3d4155d6	0.047201
216	0x3d4cb62e	0.049978428
217	0xbd3acc7b	-0.045605164
218	0x3d1fca7a	0.039011456
219	0x3e456e71	0.19280411
220	0x3d995f2b	0.07488855
221	0xbe4823db	-0.19544928
222	0x3d7ca17d	0.061677445
223	0x3e1563e4	0.14588886
224	0x3e26bdfa	0.16283408
225	0xbdeaa484	-0.1145716
226	0x3dc4356c	0.09580502
227	0xbc99be12	-0.01876739
228	0x3dd04724	0.10169819
229	0xbbc247d6	-0.0059289737
230	0x3d2be561	0.0419668
231	0x3e0d2c12	0.13786343
232	0x3e0ea19d	0.13928838
233	0xbe2ac882	-0.1667805
234	0x3dcc06cb	0.09962233
235	0x3e9686ca	0.2939971
236	0xbdb9f861	-0.09080578
237	0x3e468735	0.19387515
238	0xbcac5ec6	-0.021041285
239	0x3e0bc2de	0.13648555
240	0xbe02fd81	-0.12792017
241	0x3e03416b	0.12817924
242	0xbcbc4124	-0.02298028
243	0xbd382827	-0.044960167
244	0x3d7f78de	0.062371127
245	0x3e2d17d6	0.16903624
246	0x3e502ea1	0.20330288
247	0xbe3185b5	-0.17336161
248	0x3dfed773	0.124434374
249	0xbdd5e491	-0.10443986
250	0x3cc04783	0.0234716
251	0xbe3a264f	-0.18178676
252	0xbe0316df	-0.12801693
253	0xbe3e3a56	-0.18576941
254	0x3ca81caa	0.02052148
255	0xbc633f1b	-0.013870026

bias f4 [10]
0	0xbeb1a80c	-0.34698522
1	0xbf67fd06	-0.9062046
2	0xbeb5c001	-0.3549805
3	0x3f1ef155	0.62086993
4	0x3f3ed8bb	0.74549454
5	0x3bdc6cb5	0.006726826
6	0x3db867cc	0.09004173
7	0xbe1d2526	-0.15346202
8	0x3ebb8f4c	0.36632764
9	0xbe71d20b	-0.23615281
