model.pth (torch, 254940 bytes, 10 tensors)

weight f4 [6, 3, 5, 5]
-0.005248581 0.008159667 0.098030046 0.2138256 0.33769688 -0.034041226 -0.11277211 0.015591398
-0.05450344 0.1257269 -0.20796461 -0.1597724 -0.19430968 -0.08236265 0.063111626 -0.066431955
-0.2877948 -0.16939059 -0.15080123 0.09780527 -0.10978401 -0.23309983 -0.26471585 -0.17236716
-0.07855933 0.019238634 -0.028332248 -0.15781139 -0.015381027 0.022951838 -0.031345796 -0.047220305
-0.10321937 0.053643003 0.04224883 0.009678107 -0.08598628 0.076759905 -0.059885357 -0.074742235
-0.07086343 0.07137386 -0.0018101165 0.17966819 0.024125904 -0.029035982 0.026155306 -0.04616159
-0.011979939 -0.26653427 -0.006001085 -0.041768566 -0.08695365 -0.19525236 -0.24083497 0.07411633
0.040178936 -0.07513465 -0.008308773 -0.13142501 0.12774971 0.29690784 0.20926191 0.21983226
-0.039602257 0.22878537 0.44606462 0.48183826 0.33822355 0.097516626 0.27199018 0.3491532
0.2780574 0.15539442 -0.1882608 0.23964503 0.35748821 0.3856538 0.13554248 0.11099772
-0.10480583 0.24186817 0.19134693 -0.18858153 0.24124223 -0.062357802 0.2566254 0.12810306
-0.38635334 0.3854766 -0.20762676 0.18654932 -0.032205835 -0.5273341 0.14876197 -0.17677191
0.07379402 -0.24303007 -0.49424878 0.17377532 -0.12493711 -0.15235615 -0.27805388 -0.4245112
0.11605774 -0.11035447 -0.030235194 -0.3364205 -0.4650648 0.27087325 -0.08436022 0.15840073
-0.13397157 -0.61371815 0.4599738 0.005766845 0.38956532 -0.09831784 -0.5302589 0.48837656
0.15118316 0.15840167 0.0067904303 -0.3846852 0.49000847 -0.0794595 0.0853977 0.054128636
-0.13877738 -0.011641941 -0.038626425 -0.0026854074 0.11595697 -0.28508568 0.107172154 -0.1786069
0.19682589 -0.054555953 -0.33217132 0.24308273 -0.195443 0.11132667 -0.04433647 -0.28877947
0.33111665 -0.10413666 0.06189006 0.13366221 -0.12411836 0.31513584 0.066243194 0.27011698
0.199098 0.045593966 0.102568336 -0.044896502 -0.06626681 0.050416492 0.12880336 0.21819451
-0.24265714 -0.57334423 -0.62562525 -0.62434846 -0.47196418 0.01821007 0.026622623 0.06812937
-0.08774049 0.13939768 0.07584948 0.2366586 0.36253813 0.27360708 0.0993346 0.04265706
0.23981978 0.28464094 -0.012394862 -0.09247703 -0.13824756 -0.08629259 0.26351708 0.24737473
0.33466637 -0.1005177 -0.34944367 -0.4276656 -0.47057998 -0.40120745 0.15806396 0.06155208
0.117835216 0.16975512 0.08035788 0.022671878 -0.04761556 0.23031408 0.22891048 -0.14844014
-0.1453141 -0.061126895 0.090157874 -0.12307655 0.020179618 0.18522212 0.15489875 0.29378268
0.2524957 0.35171062 -0.076618515 -0.10286887 -0.16845323 -0.20899037 -0.1634083 -0.029847154
0.16201782 0.015919257 0.05306925 0.070466705 -0.053582184 -0.15534602 -0.10252343 -0.05526895
-0.17467749 0.2581043 0.2294281 0.2665869 0.084414124 -0.112153225 0.10056619 0.21053384
-0.055914447 -0.29515937 -0.16846289 0.08339769 -0.010782585 -0.11678738 -0.24506849 -0.10668107
-0.026753029 -0.23725839 -0.2687639 -0.07193495 0.13786235 -0.13567351 -0.17110415 -0.11087195
0.11465465 0.122444615 -0.12756489 -0.16076262 -0.16027704 -0.21677172 -0.23712656 0.011255388
00000000: 4afc abbb 20b0 053c fac3 c83d 19f5 5a3e
00000010: 9be6 ac3e d06e 0bbd 10f5 e6bd 1073 7f3c
00000020: 003f 5fbd 8dbe 003e adf4 54be 609b 23be
00000030: 1ef9 46be c0ad a8bd ab40 813d 7a0d 88bd
00000040: d759 93be ba74 2dbe a36b 1abe 214e c83d
00000050: 70d6 e0bd b9b1 6ebe d688 87be 0481 30be
00000060: b7e3 a0bd 579a 9d3c 0819 e8bc 4f99 21be
00000070: b400 7cbc 7e05 bc3c 7364 00bd 146a 41bd
00000080: ad64 d3bd c4b8 5b3d 1c0d 2d3d ec90 1e3c
00000090: 9319 b0bd 4c34 9d3d 594a 75bd 7512 99bd
000000a0: d920 91bd 752c 923d 6e41 edba f0fa 373e
000000b0: b0a3 c53c dedc edbc a743 d63c ef13 3dbd
000000c0: 8247 44bc 2e77 88be c0a4 c4bb 8415 2bbd
000000d0: c114 b2bd 3cf0 47be 719d 76be 4dca 973d
000000e0: ab92 243d 32e0 99bd 8521 08bc 4794 06be
000000f0: d2d0 023e 4e04 983e c148 563e b51b 613e
00000100: fa35 22bd b646 6a3e 9562 e43e 81b3 f63e
00000110: a32b ad3e ccb6 c73d 4c42 8b3e 35c4 b23e
00000120: 8a5d 8e3e b71f 1f3e 70c7 40be 8265 753e
00000130: b208 b73e 6a74 c53e a6cb 0a3e c652 e33d
00000140: 70a4 d6bd 4aac 773e 73f0 433e 841b 41be
00000150: 3408 773e e56a 7fbd 6864 833e 732d 033e
00000160: 1bd0 c5be 305d c53e 1c9c 54be c906 3f3e
00000170: 44ea 03bd 5eff 06bf 0f55 183e b203 35be
00000180: 5221 973d e0dc 78be 2d0e fdbe 28f2 313e
00000190: 07df ffbd 4003 1cbe 145d 8ebe 8859 d9be
000001a0: aeaf ed3d 8601 e2bd ccaf f7bc 4f3f acbe
000001b0: f91c eebe e6af 8a3e 0dc5 acbd cd33 223e
000001c0: d82f 09be a21c 1dbf b081 eb3e cdf7 bc3b
000001d0: 1b75 c73e dd5a c9bd 0cbf 07bf 7e0c fa3e
000001e0: c2cf 1a3e 0c34 223e 4282 de3b 75f5 c4be
000001f0: 64e2 fa3e aabb a2bd fde4 ae3d fdb5 5d3d
00000200: a81b 0ebe d7bd 3ebc be36 1ebd a9fd 2fbb
00000210: d97a ed3d c0f6 91be 137d db3d bae4 36be
00000220: ba8c 493e 1076 5fbd 5c12 aabe aeea 783e
00000230: 3622 48be 3dff e33d 299a 35bd e7da 93be
00000240: 1f88 a93e 9a45 d5bd 6e80 7d3d bfde 083e
00000250: c431 febd 7c59 a13e 83aa 873d c64c 8a3e
00000260: 59e0 4b3e bdc0 3a3d 590f d23d 65e5 37bd
00000270: e5b6 87bd 8681 4e3d 07e5 033e 626e 5f3e
00000280: 1d7b 78be b0c6 12bf fa28 20bf 4dd5 1fbf
00000290: 4aa5 f1be 492d 953c b017 da3c 6987 8b3d
000002a0: 49b1 b3bd 44be 0e3e f956 9b3d a256 723e
000002b0: 999e b93e 3a16 8c3e f06f cb3d 2bb9 2e3d
000002c0: 5193 753e 75bc 913e d213 4bbc 9964 bdbd
000002d0: c590 0dbe 2bba b0bd b6eb 863e cd4f 7d3e
000002e0: 6459 ab3e 39dc cdbd 48ea b2be fcf6 dabe
000002f0: dcef f0be 106b cdbe 85db 213e 091e 7c3d
00000300: 9753 f13d 49d4 2d3e ac92 a43d 60ba b93c
00000310: 8908 43bd 74d7 6b3e 8267 6a3e b100 18be
00000320: 38cd 14be 3260 7abd b1a4 b83d 8f0f fcbd
00000330: ba4f a53c deaa 3d3e c79d 1e3e af6a 963e
00000340: 1e47 813e 6a13 b43e 2bea 9cbd eaac d2bd
00000350: 017f 2cbe 9201 56be 8154 27be 0582 f4bc
00000360: 00e8 253e 1a69 823c 245f 593d d950 903d
00000370: fe78 5bbd 0713 1fbe cef7 d1bd b261 62bd
00000380: a8de 32be 3f26 843e 33ef 6a3e 147e 883e
00000390: 50e1 ac3d 97b0 e5bd a6f5 cd3d 2f96 573e
000003a0: 8c06 65bd 211f 97be 8981 2cbe 68cc aa3d
000003b0: 70a9 30bc 392e efbd 3cf3 7abe 9b7b dabd
000003c0: 2b29 dbbc ddf3 72be 6c9b 89be a252 93bd
000003d0: ca2b 0d3e ffed 0abe ed35 2fbe d510 e3bd
000003e0: 0fd0 ea3d 3ec4 fa3d 5fa0 02be f59e 24be
000003f0: aa1f 24be 68f9 5dbe 4ed1 72be 8568 383c

bias f4 [6]
0.03661042 -0.20685542 -0.2533262 -0.30335364 -0.2602898 -0.21514378
00000000: cff4 153d e8d1 53be f9b3 81be 2b51 9bbe
00000010: b444 85be a74e 5cbe

weight f4 [16, 6, 5, 5]
-0.11292424 -0.27221015 -0.41743883 -0.5090337 -0.56065303 -0.3130115 -0.6190296 -0.42108506
-0.96324164 -0.6180487 -0.09310109 -0.3811037 0.08281938 -0.3809317 -0.60981226 -0.07181727
-0.460688 -0.43980107 -0.18788922 -0.1245049 0.09079739 -0.30519086 -0.17656022 0.07827279
-0.13393947 0.03212415 0.17466988 0.07706108 0.042577013 -0.038143985 -0.10845652 0.03614276
0.31597388 0.03637931 -0.0052682916 0.1895082 0.1990309 0.058527518 0.1243725 -0.0082618315
0.040162303 0.18414524 0.0003632485 0.17506732 0.012332371 -0.21684943 -0.1872737 0.048682198
-0.14791997 0.0025246732 -0.25640905 0.028460283 -0.398275 -0.42387033 0.14545809 -0.17800348
0.44462967 0.5193432 -0.38279203 -0.060052596 -0.21215704 -0.20630985 0.12377332 0.3233866
-0.25363246 -0.04434282 -0.025778733 -0.026509853 0.09254793 0.050939552 -0.066373415 -0.007708969
0.15415812 -0.024426213 -0.034195013 0.2865051 -0.08026155 0.17740968 0.002779821 0.051646423
0.1942372 0.17525606 -0.40087804 0.10770771 0.118695505 0.15468138 0.40071478 -0.1316455
-0.13460407 -0.01900034 0.2361046 0.16712567 0.17582603 0.07539743 -0.10476464 -0.047963016
-0.24522732 0.11587992 0.09904991 -0.1708606 -0.066362225 -0.06512862 -0.1822307 0.101180285
0.15931323 -0.19548604 0.41330907 -0.077439435 -0.042189274 0.057392247 0.020019883 -0.14421877
0.43791637 -0.6590392 0.353927 0.08494438 -0.11110288 0.26360965 0.07838346 -0.2528914
0.24219805 -0.031206893 0.13054655 0.19285168 -0.42796922 0.09751517 0.05840432 -0.20668125
0.27151948 0.22215052 -0.053595677 -0.29427508 -0.23101805 -0.5086782 0.23031138 -0.19602337
-0.024169026 -0.30326578 0.046191037 -0.31668094 -0.051760864 -0.052467667 -0.16233426 -0.24123207
-0.25912306 -0.05272317 0.07683523 0.24261858 -0.11666852 -0.020193692 -0.107163616 0.044783868
-0.025256174 -0.09052635 -0.0872202 -0.08343066 -0.0133948745 -0.04211356 0.011392485 -0.05526803
-0.11748067 -0.02422222 0.046660364 -0.0070066797 -0.041299287 -0.06674329 0.07525941 -0.08286487
-0.09583507 -0.079513244 0.0053665126 -0.06569639 0.015275347 -0.04927142 -0.17494404 0.006771955
0.033935636 0.025902541 0.03899405 -0.01953119 -0.079363994 -0.05179797 -0.040538367 0.0061161695
-0.032728605 -0.10788803 -0.18033187 -0.07257002 -0.07499218 -0.13663974 -0.0673719 -0.14459364
-0.03997233 -0.20016275 -0.055465046 0.04899075 -0.16697079 0.0050390563 -0.11125495 0.025788115
-0.08798591 -0.030075913 0.046788536 -0.019163338 0.008595841 -0.12124591 -0.026762992 -0.05488123
-0.018839926 -0.046385482 -0.094100945 -0.05116082 -0.012384146 -0.047972433 -0.040814288 -0.024094729
-0.008506741 -0.13070922 -0.015183715 0.0047968663 -0.12425179 0.020443577 -0.019918341 -0.025807608
-0.02710999 -0.054983974 -0.1266453 0.05038408 0.045828667 -0.12274092 -0.09648199 -0.044811867
-0.033330787 0.03496677 -0.06626845 0.018339233 0.0025759586 -0.1044134 -0.031765953 -0.0811378
-0.11474325 -0.16549626 0.05930868 -0.020667719 -0.079610735 -0.18795551 0.0060890364 0.017311934
-0.11191983 -0.10407695 0.019161591 -0.015609785 -0.053182986 -0.06807499 -0.037746515 0.07334081
00000000: d344 e7bd 215f 8bbe 8bba d5be 0850 02bf
00000010: f586 0fbf 0b43 a0be b978 1ebf 7698 d7be
00000020: 0197 76bf 7138 1ebf c9ab bebd 0620 c3be
00000030: 359d a93d 7b09 c3be a81c 1cbf ef14 93bd
00000040: 4cdf ebbe 9b2d e1be 0866 40be 6dfc febd
00000050: fbf3 b93d fa41 9cbe 34cc 34be 7c4d a03d
00000060: 6e27 09be 9d94 033d a9dc 323e 33d2 9d3d
00000070: 3c65 2e3d de3c 1cbd 741e debd 6e0a 143d
00000080: 54c7 a13e 7902 153d a2a1 acbb 700e 423e
00000090: c2ce 4b3e 8dba 6f3d 02b7 fe3d a25c 07bc
000000a0: 3a81 243d 9290 3c3e 6372 be39 d944 333e
000000b0: b70d 4a3c c70d 5ebe adc4 3fbe fc66 473d
000000c0: 5578 17be fd74 253b 0c48 83be 8a25 e93c
000000d0: b3ea cbbe 8805 d9be f7f2 143e 8b46 36be
000000e0: 80a6 e33e adf3 043f 51fd c3be b6f9 75bd
000000f0: b23f 59be e442 53be de7c fd3d ee92 a53e
00000100: 1ddc 81be d1a0 35bd ec2d d3bc 312b d9bc
00000110: c589 bd3d fea5 503d c9ee 87bd 859b fcbb
00000120: a0db 1d3e 7b19 c8bc 1210 0cbd ccb0 923e
00000130: 2b60 a4bd e2aa 353e a82d 363b 338b 533d
00000140: 1ee6 463e 5376 333e e33f cdbe dc95 dc3d
00000150: a116 f33d cc64 1e3e 7d2a cd3e 14ce 06be
00000160: a6d5 09be 9aa6 9bbc 67c5 713e fe22 2b3e
00000170: bd0b 343e f869 9a3d d88e d6bd de74 44bd
00000180: df1c 7bbe 7452 ed3d aeda ca3d 15f6 2ebe
00000190: ebe8 87bd 2762 85bd af9a 3abe 9c37 cf3d
000001a0: 0223 233e 7e2d 48be 3f9d d33e 9198 9ebd
000001b0: a9ce 2cbd 2214 6b3d bd00 a43c 16ae 13be
000001c0: 9336 e03e cbb6 28bf eb35 b53e 52f7 ad3d
000001d0: e889 e3bd d8f7 863e 8287 a03d fb7a 81be
000001e0: c402 783e 99a5 ffbc ffad 053e e97a 453e
000001f0: c81e dbbe 09b6 c73d 5e39 6f3d 40a4 53be
00000200: 9a04 8b3e 6d7b 633e 2487 5bbd 39ab 96be
00000210: ff8f 6cbe bc38 02bf bfd6 6b3e 5aba 48be
00000220: 1ffe c5bc a745 9bbe d032 3d3d 0124 a2be
00000230: 3303 54bd 56e8 56bd f43a 26be 8a05 77be
00000240: c7ab 84be 40f4 57bd ca5b 9d3d 0171 783e
00000250: e8ef eebd 3e6d a5bc 9978 dbbd 4a6f 373d
00000260: 09e6 cebc e165 b9bd 81a0 b2bd b2dd aabd
00000270: 2d76 5bbc 457f 2cbd 8ca7 3a3c bb60 62bd
00000280: b599 f0bd ad6d c6bc f01e 3f3d 4a98 e5bb
00000290: 7129 29bd b5b0 88bd 9b21 9a3d 0fb5 a9bd
000002a0: 2d45 c4bd d7d7 a2bd 92d9 af3b d48b 86bd
000002b0: 7345 7a3c d4d0 49bd 8824 33be 47e7 dd3b
000002c0: 1800 0b3d 9131 d43c 3ab8 1f3d e0ff 9fbc
000002d0: 9789 a2bd 1c2a 54bd 8f0b 26bd 266a c83b
000002e0: 6e0e 06bd 66f4 dcbd eba8 38be 979f 94bd
000002f0: 8095 99bd 4aeb 0bbe 47fa 89bd 5b10 14be
00000300: 07ba 23bd 77f7 4cbe 512f 63bd 86aa 483d
00000310: 64fa 2abe ab1e a53b a3d9 e3bd 9941 d33c
00000320: f531 b4bd c361 f6bc 56a5 3f3d 6ffc 9cbc
00000330: 92d5 0c3c c74f f8bd 103e dbbc 24cb 60bd
00000340: 3056 9abc b4fe 3dbd ffb7 c0bd 028e 51bd
00000350: e0e6 4abc be7e 44bd e22c 27bd 4f62 c5bc
00000360: dc5f 0bbc a3d8 05be 1ec5 78bc 082f 9d3b
00000370: b977 febd 4a79 a73c ca2b a3bc 7a6a d3bc
00000380: c515 debc e036 61bd 4eaf 01be 895f 4e3d
00000390: d7b6 3b3d 975f fbbd 5998 c5bd a68c 37bd
000003a0: dd85 08bd 5139 0f3d c1b7 87bd 293c 963c
000003b0: 6ad1 283b b1d6 d5bd 041d 02bd 932b a6bd
000003c0: 82fe eabd da77 29be a9ed 723d 594f a9bc
000003d0: f40a a3bd 6977 40be 8a86 c73b c2d1 8d3c
000003e0: 3936 e5bd 4c26 d5bd c5f8 9c3c 2fc0 7fbc
000003f0: 67d6 59bd e66a 8bbd 179c 1abd b533 963d

bias f4 [16]
0.12675379 -0.18293959 0.19747946 0.0022412464 -0.20225234 0.8056959 -0.84690547 0.18020199
0.53534144 -0.9695828 -0.41816914 -0.36067417 0.39191324 0.885893 -0.22276907 0.41323516
00000000: bfcb 013e 8454 3bbe 0e38 4a3e e0e1 123b
00000010: 3d1b 4fbe 1642 4e3f ccce 58bf df86 383e
00000020: 230c 093f 9436 78bf 441a d6be 49aa b8be
00000030: daa8 c83e e2c9 623f 931d 64be 8f93 d33e

weight f4 [120, 400]
0.0035268057 -0.034589935 -0.058034997 -0.01415506 -0.00849571 -0.03218637 -0.008564092 -0.08058413
-0.087252215 -0.046525232 0.029254945 -0.071150325 -0.024589319 -0.08020995 -0.08174781 -0.066699736
-0.06781942 -0.038779594 -0.046929225 -0.04280632 0.025764953 -0.038509216 -0.044065915 -0.060450677
-0.022773642 -0.0029872283 0.03329699 -0.038452603 -0.044706073 0.024827871 -0.0069897845 0.0063263997
0.048414547 -0.008098017 0.020380344 0.021512602 -0.030636234 -0.026159203 -0.005612038 -0.008503217
-0.014000155 0.033538725 0.022556547 -0.012514215 -0.010913514 -0.01147341 0.025391448 0.04095554
0.033455852 -0.017498635 -0.0035623508 -0.027265843 -0.063401096 -0.08687628 -0.03912022 -0.07785622
-0.09879307 -0.035214297 -0.10848118 -0.07361034 -0.018867303 -0.07536349 -0.0545117 -0.039146002
-0.06286435 -0.035470672 0.0025790164 -0.029280646 -0.0555644 0.002736581 -0.04810472 -0.05356787
0.045675337 -0.051796686 -0.05991327 -0.008700946 -0.06916277 0.007755337 0.001609714 0.03481091
-0.081371635 0.010602157 -0.016033065 0.0073471824 -0.032954674 -0.007627124 -0.002567568 -0.055666957
-0.046161104 0.0027566482 -0.026223652 -0.037445556 -0.027404334 0.023375912 -0.040753853 -0.031312793
-0.04819854 0.014671256 0.008984855 0.026099259 -0.017253801 -0.06079213 -0.01892193 -0.029954089
-0.004220589 0.028497249 -0.0776775 -0.048249103 0.030890774 0.033012066 -0.033638973 0.0136779975
0.0044299737 0.021157976 -0.024238462 0.0073077343 0.017206136 0.016726475 0.037664447 -0.04635524
0.029304422 0.036930468 -0.04704628 -0.014682449 -0.06904024 -0.059460074 0.025787964 0.032197345
-0.04473766 -0.06017745 -0.05160931 -0.0069694915 -0.047631677 0.017362006 -0.017641654 0.008643969
-0.01613021 -0.08464626 -0.031245178 0.020285415 -0.042610347 -0.07251055 0.011588238 -0.009734232
-0.04294463 0.014901292 0.014968667 -0.020397509 0.0147209875 -0.044892278 -0.02784233 -0.03180221
0.0026342971 0.010995617 -0.04846523 -0.034990124 -0.03658939 -0.04075378 -0.033686697 -0.034646794
-0.028155128 -0.071105644 0.011343518 0.004745413 0.0090707 -0.072472066 -0.037426732 -0.09944989
-0.014563795 -0.062014062 -0.026812663 -0.071453474 0.0033469293 -0.08028946 -0.031378087 -0.04201974
-0.052764893 -0.038960636 -0.07090922 -0.031975865 -0.030962288 -0.000908891 -0.03689346 0.011295643
-0.06497369 -0.054322865 -0.019578304 -0.05494715 0.028821904 0.0065994035 -0.028611908 -0.07864192
-0.035409793 -0.03917246 -0.039927203 -0.056657504 -0.0031033338 -0.044130497 -0.06353546 -0.054084163
-0.02938198 -0.0041663237 -0.049097866 -0.02177304 0.006559532 -0.075716235 0.014904682 0.048818503
0.03629149 -0.038268756 0.0475895 0.0013339818 -0.04264273 0.014820758 -0.018505268 -0.02567171
0.0118634775 0.0042087734 -0.04511515 0.031118888 -0.019930338 -0.0065046623 -0.010014646 -0.04296131
0.020530228 -0.083504215 -0.015878525 -0.048936423 -0.05025875 -0.08748752 -0.010521792 0.03509746
-0.03582987 0.023565339 0.041138586 -0.012142783 -0.07831367 -0.017913708 0.0028738668 -0.010043727
-0.013091613 -0.06699965 0.026965909 -0.005430611 -0.037385013 0.008481891 0.046476696 -0.053574856
-0.051739864 -0.07612648 -0.019497385 0.009952692 0.0064956844 -0.05628013 -0.017646141 -0.07904787
00000000: fb21 673b 2dae 0dbd 1bb6 6dbd a0ea 67bc
00000010: 9731 0bbc dbd5 03bd 6850 0cbc 4b09 a5bd
00000020: 4ab1 b2bd 3e91 3ebd 11a8 ef3c 43b7 91bd
00000030: 8a6f c9bc 1d45 a4bd 656b a7bd df99 88bd
00000040: e8e4 8abd 5ad7 1ebd dc38 40bd ae55 2fbd
00000050: 0611 d33c d7bb 1dbd 767e 34bd 219b 77bd
00000060: ca8f babc 60c5 43bb 6d62 083d 7a80 1dbd
00000070: b71d 37bd d263 cb3c 900a e5bb b04d cf3b
00000080: 554e 463d 8cad 04bc aef4 a63c 323b b03c
00000090: d7f8 fabc d34b d6bc 30e5 b7bb 1451 0bbc
000000a0: e860 65bc e75f 093d 82c8 b83c 6c08 4dbc
000000b0: 98ce 32bc f8fa 3bbc ba01 d03c ffc0 273d
000000c0: 0109 093d 4c59 8fbc 5476 69bb 9e5c dfbc
000000d0: 6fd8 81bd 31ec b1bd 863c 20bd 1573 9fbd
000000e0: 0554 cabd de3c 10bd 622b debd 05c1 96bd
000000f0: 9a8f 9abc 2c58 9abd a947 5fbd 8f57 20bd
00000100: 06bf 80bd b249 11bd b704 293b f7dd efbc
00000110: 7f97 63bd 3658 333b 7409 45bd fc69 5bbd
00000120: 1016 3b3d c328 54bd 9e67 75bd 6a8e 0ebc
00000130: 36a5 8dbd 7b20 fe3b 0afd d23a e295 0e3d
00000140: 2ca6 a6bd abb4 2d3c c657 83bc a2c0 f03b
00000150: 7bfb 06bd f4ec f9bb a544 28bb 0903 64bd
00000160: 6d13 3dbd e2a8 343b fcd2 d6bc 8360 19bd
00000170: 0e7f e0bc d77e bf3c 83ed 26bd d841 00bd
00000180: d56b 45bd b55f 703c 3735 133c 1dce d53c
00000190: d857 8dbc 2b01 79bd 2a02 9bbc 4762 f5bc
000001a0: de4c 8abb 1073 e93c 6215 9fbd daa0 45bd
000001b0: a60e fd3c a937 073d 05c9 09bd ae19 603c
000001c0: 5029 913b 7e53 ad3c bd8f c6bc b875 ef3b
000001d0: e2f3 8c3c f605 893c 0946 1a3d fede 3dbd
000001e0: d40f f03c 6744 173d 9ab3 40bd a88e 70bc
000001f0: f864 8dbd 688c 73bd 4841 d33c 5de1 033d
00000200: d63e 37bd a17c 76bd 4964 53bd 5560 e4bb
00000210: 6f19 43bd c43a 8e3c 3b85 90bc 6f9f 0d3c
00000220: 8123 84bc 055b adbd e3f5 ffbc 992d a63c
00000230: 3088 2ebd 6980 94bd 98dc 3d3c 547c 1fbc
00000240: b5e6 2fbd 8c24 743c 243f 753c ad18 a7bc
00000250: 4c30 713c f7e0 37bd 9915 e4bc 0943 02bd
00000260: 2ca4 2c3b f626 343c 7a83 46bd ce51 0fbd
00000270: c2de 15bd 70ed 26bd 10fb 09bd cce9 0dbd
00000280: 95a5 e6bc d69f 91bd 2ada 393c 697f 9b3b
00000290: 469d 143c 3c6c 94bd c64c 19bd 62ac cbbd
000002a0: fc9c 6ebc 7502 7ebd 3ba6 dbbc 3356 92bd
000002b0: 2858 5b3b cd6e a4bd 4f86 00bd e41c 2cbd
000002c0: 0020 58bd 3095 1fbd da38 91bd 20f9 02bd
000002d0: a0a4 fdbc a442 6eba 991d 17bd 5c11 393c
000002e0: ed10 85bd a781 5ebd ae62 a0bc 4310 61bd
000002f0: ea1b ec3c cf3f d83b 8563 eabc 040f a1bd
00000300: dc09 11bd 4d73 20bd b58a 23bd b311 68bd
00000310: 4d61 4bbb 2ec2 34bd e11e 82bd 5b87 5dbd
00000320: 7ab2 f0bc a885 88bb d81a 49bd 605d b2bc
00000330: 58f1 d63b 1d11 9bbd c432 743c e9f5 473d
00000340: 63a6 143d b3bf 1cbd 35ed 423d 00d9 ae3a
00000350: 25aa 2ebd c4d2 723c 5c98 97bc 7a4d d2bc
00000360: 085f 423c c0e9 893b aaca 38bd 0aed fe3c
00000370: f344 a3bc 1025 d5bb 7814 24bc 33f8 2fbd
00000380: 022f a83c 4204 abbd ae13 82bc 8f71 48bd
00000390: 1edc 4dbd a82c b3bd 9863 2cbc 5bc2 0f3d
000003a0: 57c2 12bd 190c c13c ef80 283d 86f2 46bc
000003b0: eb62 a0bd c5bf 92bc 7c57 3c3b 728e 24bc
000003c0: 347e 56bc 1d37 89bd 9ce7 dc3c 44f3 b1bb
000003d0: 0721 19bd a1f7 0a3c 595e 3e3d 4f71 5bbd
000003e0: 2eed 53bd 33e8 9bbd fbb8 9fbc 9e10 233c
000003f0: c0d9 d43b fe85 66bd a48e 90bc dae3 a1bd

bias f4 [120]
-0.09853788 0.021670703 -0.46209577 -0.26782683 -0.07137617 -0.07315807 0.48469922 -0.010806251
-0.019272616 -0.02578764 -0.06019431 -0.09563412 -0.43582156 -0.061033927 -0.04491819 0.010792592
1.1512552 -0.11812271 -0.08684939 -0.037968893 0.8975204 -0.008432625 -0.11131284 0.28059366
-0.16598316 0.115065314 -0.10939312 0.21874645 0.6224088 -0.012245196 -0.17931865 -0.12892509
-0.0065380028 -0.093065605 -0.17733803 -0.010800428 -0.02496028 -0.3993578 -0.20710632 1.0029672
-0.05479871 -0.41675135 1.0461781 -0.06651837 -0.6748142 -0.08130266 -0.31851763 0.019571515
-0.0126076415 -0.13405667 1.5387193 0.9495809 -0.9440244 0.2052899 -0.22814274 -0.15131378
-0.057788223 -0.05830858 0.21178146 0.0052062483 -0.032719176 -0.48267102 -0.04399319 -0.5541415
-0.038246006 -0.098073326 -0.029597979 -0.00992004 -0.17622931 -0.06707877 0.48592904 -0.2651629
-0.6248158 1.0619426 0.010124967 0.11875932 -0.022136899 -0.06090176 -0.06732735 -0.07781509
-0.2796264 -0.05661015 -0.0736693 0.58196336 -0.44986445 -0.032432165 0.83083534 1.0302042
-0.0040992224 -0.047379598 -0.20035698 0.0020295694 -0.088250265 0.0019738497 0.8966726 1.327206
-0.5461347 -0.9036789 -0.05450666 -0.16122866 0.18460256 -0.08518819 0.14746858 -0.001614522
1.1060452 -0.008463332 -0.056470424 0.17611915 -0.055126794 0.41918358 -0.19176188 -0.008410777
0.46248484 -0.6641231 -0.08035442 -0.18126048 -0.070163906 1.2956756 -0.070943326 -0.26851317
00000000: 3ace c9bd c286 b13c d197 ecbe 9920 89be
00000010: ab2d 92bd e6d3 95bd 7f2a f83e b40c 31bc
00000020: 9be1 9dbc 9a40 d3bc 4f8e 76bd d2db c3bd
00000030: 0124 dfbe b6fe 79bd 23fc 37bd 69d3 303c
00000040: 555c 933f 52ea f1bd 18de b1bd 4585 1bbd
00000050: e6c3 653f fe28 0abc fcf7 e3bd f9a9 8f3e
00000060: 7df7 29be 5da7 eb3d 8009 e0bd 12ff 5f3e
00000070: 2f56 1f3f 13a0 48bc 4f9f 37be f004 04be
00000080: be3c d6bb 2e99 bebd 1a98 35be 47f4 30bc
00000090: 8079 ccbc a078 ccbe ae13 54be 3b61 803f
000000a0: 9d74 60bd 6f60 d5be 2ae9 853f c83a 88bd
000000b0: a0c0 2cbf 0282 a6bd be14 a3be 7154 a03c
000000c0: 4890 4ebc 2746 09be c1f4 c43f bc17 733f
000000d0: 95ab 71bf 8437 523e 409e 69be 00f2 1abe
000000e0: 58b3 6cbd fad4 6ebd 3ddd 583e 2d99 aa3b
000000f0: 8b04 06bd a820 f7be 3432 34bd 38dc 0dbf
00000100: d8a7 1cbd abda c8bd 7677 f2bc aa87 22bc
00000110: 7575 34be 9860 89bd b1cb f83e 6ec3 87be
00000120: eef3 1fbf bced 873f 31e3 253c 1638 f33d
00000130: 7158 b5bc 2074 79bd ece2 89bd 855d 9fbd
00000140: 312b 8fbe 0be0 67bd eedf 96bd 8dfb 143f
00000150: a254 e6be 97d7 04bd a0b1 543f bbdd 833f
00000160: c552 86bb 1c11 42bd 612a 4dbe 8602 053b
00000170: 8ebc b4bd b45b 013b 568c 653f e3e1 a93f
00000180: 7ccf 0bbf 8057 67bf 6042 5fbd 2019 25be
00000190: 7408 3d3e 2577 aebd 0102 173e 5e9e d3ba
000001a0: e492 8d3f caa9 0abc 884d 67bd 9458 343e
000001b0: a2cc 61bd 3b9f d63e 3a5d 44be 5bcd 09bc
000001c0: d0ca ec3e f903 2abf dc90 a4bd 599c 39be
000001d0: 18b2 8fbd b3d8 a53f bc4a 91bd 8f7a 89be

weight f4 [84, 120]
0.07471399 -0.006361156 -0.15458556 0.034478493 -0.031080563 -0.08137921 0.048029337 0.016280867
0.06040343 0.035858832 0.06443651 0.020966202 -0.06915871 -0.07090159 0.08229504 -0.22803876
0.025272056 0.06806895 -0.14898555 -0.04965525 -0.262276 0.055003736 0.013562947 0.08751797
0.090049714 -0.00946052 0.12464294 -0.18691023 -0.14020441 -0.0006311309 0.034024026 0.0029844125
-0.10259484 -0.02624885 -0.11082507 0.017736696 0.062590554 0.12526904 -0.089282274 -0.17958234
-0.051306 -0.078196526 -0.11462047 0.08067717 -0.08182309 0.08469658 -0.16209896 -0.077188484
0.029553954 0.032778494 0.0387184 -0.03137296 -0.15612875 -0.07048079 -0.15144496 -0.06892041
0.0434019 0.03403571 -0.07717045 -0.042068854 -0.0811512 -0.081236266 -0.049082637 -0.3491648
0.041346252 -0.051672816 0.04809839 -0.07284453 0.037331685 -0.027868334 0.04205335 -0.15196426
-0.30322942 -0.14045967 -0.0985806 -0.31243747 0.08214556 -0.025416533 -0.042386424 0.08219015
-0.051379766 0.09312481 -0.09060433 0.06464854 0.10851372 0.030757267 -0.37884864 0.0103742285
-0.05836427 -0.14912587 -0.025463065 0.080026664 0.01580475 0.055603474 0.045624495 0.0241534
-0.12570013 -0.13183112 -0.1634409 -0.051315427 -0.18496561 -0.090715066 -0.005125072 0.025528878
0.060714226 -0.08385029 -0.07712281 0.09089401 0.072826385 -0.20181625 0.027473992 -0.07515941
0.09611223 -0.1662987 0.03889693 0.018837428 0.026252551 0.0036674181 0.047188103 -0.130318
-0.0028863067 -0.012458902 0.5721759 0.12491635 -0.0458891 0.058137488 -0.14883012 -0.037502572
0.060684416 -0.078349315 -0.060812365 -0.60433257 -0.4048026 -0.031770825 0.078419805 -0.30495486
-0.25701928 0.009604061 -0.6586729 0.10441817 -0.068398744 -0.02492182 0.060888525 -0.11246542
0.09682243 -0.14238144 -0.67568535 0.2547179 -0.20364906 -0.049794566 0.060433064 0.042327803
0.0934415 -0.105003126 -0.013191819 -0.038526203 0.116392314 -0.56832093 0.08935865 -0.19171493
-0.41778976 -0.14221947 -0.45519716 -0.07444082 -0.39821982 -0.037078954 -0.09081484 -0.41761833
0.08092348 -0.014795648 -0.32436422 -0.22158052 -0.24799013 -0.45836228 -0.7280339 -0.73809695
0.09004235 0.036171436 -0.2699359 -0.0050461306 0.07555695 0.44013518 0.026906768 0.010162258
0.064490825 -0.09534055 0.007731007 -0.02967931 0.35649487 -0.0287122 -0.18682148 -0.006240582
0.3290909 0.16039458 0.008503952 -0.058909737 0.042410538 -0.007988985 0.03291679 -0.04171862
-0.6208581 0.059371427 -0.030848246 -1.0256085 0.05011272 0.100324154 -0.046458967 -0.31883457
-0.032767322 -0.35440525 0.33162627 -0.030953547 -0.11301655 -0.059326436 -0.15979323 -0.037836354
-0.099922925 -0.15264298 0.53304654 -0.044321146 -0.15173933 -0.008507423 -0.7792626 0.066152446
-0.022730038 -0.039557815 0.020652264 0.04373923 -0.010943461 0.022833608 -0.47229236 0.0037967023
-0.22057979 0.098531984 -0.08487629 0.07008497 0.06749202 -0.19330287 0.021373976 -0.35041308
0.022223812 -0.105121195 0.3329201 0.17540722 -0.104778975 0.06989979 -0.37509304 0.0039284886
-0.093958825 -0.105762966 0.057334792 0.14150992 -0.13053215 0.035596326 -0.07985513 0.13762726
00000000: a603 993d 3e71 d0bb ad4b 1ebe 5239 0d3d
00000010: aa9c febc 25aa a6bd 69ba 443d 745f 853c
00000020: 9669 773d b6e0 123d 4af7 833d 50c1 ab3c
00000030: 15a3 8dbd da34 91bd 4d8a a83d fe82 69be
00000040: 5807 cf3c bc67 8b3d ab8f 18be 4e63 4bbd
00000050: 0a49 86be 994b 613d 1f37 5e3c 9f3c b33d
00000060: fc6b b83d 4c00 1bbc cc44 ff3d 6565 3fbe
00000070: bf91 0fbe 7a72 25ba c75c 0b3d 2296 433b
00000080: 3e1d d2bd d407 d7bc 41f8 e2bd 8c4c 913c
00000090: 7a2f 803d 8746 003e a0d9 b6bd 6fe4 37be
000000a0: 3e26 52bd 8025 a0bd 23be eabd 123a a53d
000000b0: dd92 a7bd 6775 ad3d 45fd 25be ff14 9ebd
000000c0: 221b f23c be42 063d 2f97 1e3d ef80 00bd
000000d0: 37e0 1fbe 3c58 90bd 6314 1bbe 2526 8dbd
000000e0: 31c6 313d 0769 0b3d 8a0b 9ebd 6450 2cbd
000000f0: 9a32 a6bd 335f a6bd e00a 49bd bbc5 b2be
00000100: b05a 293d e0a6 53bd d102 453d 832f 95bd
00000110: 1ce9 183d 224c e4bc 2240 2c3d 859c 1bbe
00000120: e340 9bbe a9d4 0fbe a0e4 c9bd cef7 9fbe
00000130: ee3b a83d 5536 d0bc 639d 2dbd 4f53 a83d
00000140: 9773 52bd 38b8 be3d c38e b9bd 7466 843d
00000150: 713c de3d aaf6 fb3c 73f8 c1be abf8 293c
00000160: 5f0f 6fbd 74b4 18be eb97 d0bc 05e5 a33d
00000170: f778 813c 78c0 633d c0e0 3a3d 5add c53c
00000180: 89b7 00be bdfe 06be 0d5d 27be 2030 52bd
00000190: a067 3dbe d2c8 b9bd 38f0 a7bb f021 d13c
000001a0: 7baf 783d b3b9 abbd 90f2 9dbd a426 ba3d
000001b0: 0026 953d eba8 4ebe 2311 e13c 2ded 99bd
000001c0: 7dd6 c43d 354a 2abe 6352 1f3d f350 9a3c
000001d0: 970f d73c 1159 703b 5048 413d 1572 05be
000001e0: 3128 3dbb 6c20 4cbc 1f7a 123f 25d4 ff3d
000001f0: 35f6 3bbd 9321 6e3d ec66 18be 4c9c 19bd
00000200: 3990 783d 9b75 a0bd 6316 79bd 8ab5 1abf
00000210: 4942 cfbe 2022 02bd 909a a03d 0b23 9cbe
00000220: 0898 83be 5a5a 1d3c ca9e 28bf 32d9 d53d
00000230: a414 8cbd d828 ccbc 3f66 793d 4554 e6bd
00000240: d74a c63d 71cc 11be b7f9 2cbf 626a 823e
00000250: 6189 50be 63f5 4bbd a988 773d eb5f 2d3d
00000260: 425e bf3d e10b d7bd 8022 58bc a7cd 1dbd
00000270: 185f ee3d 7b7d 11bf ab01 b73d eb50 44be
00000280: 8ae8 d5be fba1 11be 9a0f e9be 6e74 98bd
00000290: 78e3 cbbe 1ae0 17bd 21fd b9bd 12d2 d5be
000002a0: 36bb a53d 7269 72bc 1113 a6be 01e6 62be
000002b0: 20f1 7dbe 76ae eabe 6e60 3abf ecf3 3cbf
000002c0: 2068 b83d 8028 143d 0a35 8abe 035a a5bb
000002d0: 9abd 9a3d 6659 e13e 956b dc3c 997f 263c
000002e0: c413 843d e841 c3bd 6354 fd3b 0622 f3bc
000002f0: 7f86 b63e d935 ebbc 214e 3fbe cc7d ccbb
00000300: 9a7e a83e 7a3e 243e 2954 0b3c 564b 71bd
00000310: acb6 2d3d 3be4 02bc c2d3 063d 25e1 2abd
00000320: 8ef0 1ebf 742f 733d 76b5 fcbc 2447 83bf
00000330: ff42 4d3d c076 cd3d c24b 3ebd 493e a3be
00000340: 0737 06bd 9b74 b5be ebca a93e 4b92 fdbc
00000350: 3975 e7bd 4700 73bd d6a0 23be 4bfa 1abd
00000360: 64a4 ccbd 714e 1cbe bd75 083f 178a 35bd
00000370: 8e61 1bbe b862 0bbc c17d 47bf ef7a 873d
00000380: 5834 babc 6007 22bd f02e a93c e827 333d
00000390: 344c 33bc 8c0d bb3c 4ed0 f1be 18d2 783b
000003a0: abdf 61be 23cb c93d 9fd3 adbd b588 8f3d
000003b0: 4239 8a3d 30f1 45be 7a18 af3c 5869 b3be
000003c0: b60e b63c c849 d7bd 8174 aa3e f39d 333e
000003d0: 5c96 d6bd 9f27 8f3d 320c c0be 8dba 803b
000003e0: 7c6d c0bd 419a d8bd e3d7 6a3d fae7 103e
000003f0: 38aa 05be 74cd 113d 168b a3bd 29ee 0c3e

bias f4 [84]
-0.29222053 -0.10624219 -0.26242557 -0.43304884 -0.5536455 -0.47307795 0.23169376 -0.43171257
-0.32261217 -0.28443336 0.021762785 -0.32509345 -0.47569948 -0.77826035 -0.24248494 0.11069901
0.7171695 0.59764564 -0.37563714 1.5900574 -0.8103237 1.2892762 0.37996557 -0.20126295
-0.7494773 -0.43037656 -0.09021778 -0.8159623 -0.50591505 -0.7068789 -0.12874761 -0.11082636
0.78922164 -0.5882969 -0.20517308 0.44983727 0.10574367 0.7481366 -0.34788296 0.23831658
-0.29439035 0.094914705 0.4901666 -0.6206516 -0.2043372 -0.6697315 0.8873521 0.27831137
-0.70292836 -0.59500307 0.06929958 -0.04631955 -0.5084831 0.9999019 -0.23421767 1.3413625
-0.32773829 0.3698751 1.3045965 -0.7339755 -0.078192264 -0.47356164 0.9460228 -0.18568474
-0.41256195 -0.4750444 -0.57634896 1.2600442 -0.55383193 -0.2784962 -0.24322319 -0.19121118
0.36317244 -0.41855744 0.6608386 0.29844478 -0.0567366 0.22757907 0.4096735 -0.13234603
-0.494475 0.23651469 1.5579474 0.006332784
00000000: ee9d 95be 8195 d9bd a55c 86be 94b8 ddbe
00000010: b6bb 0dbf 4637 f2be 2141 6d3e 6e09 ddbe
00000020: 6c2d a5be 40a1 91be de47 b23c a672 a6be
00000030: e28e f3be 123c 47bf f94d 78be 2ab6 e23d
00000040: 6c98 373f 4eff 183f 8353 c0be 0087 cb3f
00000050: 6071 4fbf 0107 a53f d98a c23e e017 4ebe
00000060: bfdd 3fbf 515a dcbe 19c4 b8bd e8e2 50bf
00000070: a683 01bf 04f6 34bf 6ad6 03be eef8 e2bd
00000080: 6e0a 4a3f a09a 16bf e418 52be 1251 e63e
00000090: 2390 d83d e185 3f3f b71d b2be 4309 743e
000000a0: 55ba 96be a462 c23d 1ef7 fa3e 06e3 1ebf
000000b0: c53d 51be 8673 2bbf 8229 633f d47e 8e3e
000000c0: 1df3 33bf 1f52 18bf f0ec 8d3d 92b9 3dbd
000000d0: f32b 02bf 92f9 7f3f c2d6 6fbe c4b1 ab3f
000000e0: 50cd a7be 4560 bd3e 05fd a63f d2e5 3bbf
000000f0: 4423 a0bd ac76 f2be 8d2e 723f 2424 3ebe
00000100: 523b d3be 0539 f3be 9b8b 13bf 2149 a13f
00000110: eec7 0dbf 0e97 8ebe 800f 79be ddcc 43be
00000120: bdf1 b93e 294d d6be b82c 293f c1cd 983e
00000130: a364 68bd 7d0a 693e bac0 d13e b885 07be
00000140: d42b fdbe e830 723e d26a c73f 3e83 cf3b

weight f4 [10, 84]
-0.21172415 -0.35498965 -0.1259842 -0.055973824 -0.111495435 -0.025108593 -0.1707721 -0.03756859
-0.9219275 -1.7912693 -0.13441667 -0.8961643 -0.30617496 -0.46791026 -0.6537216 -0.23883492
-0.27634284 -0.15122038 -0.15053663 -0.31175992 -0.92671794 -0.058545355 0.08196955 -0.17986333
-0.81047803 -0.6135737 -0.13502042 -1.4363692 -1.1691556 -0.6365679 -0.57088244 -0.18174659
-0.2342639 -0.14316231 -0.10827982 -0.19829214 -0.7625702 -0.29596213 -1.3539387 -0.08579799
-0.3826596 0.017806092 -0.3728973 -0.39267707 -1.9585819 -0.9401023 0.01234386 -0.0049855327
-0.8229806 -0.9238599 -0.24849197 -0.44224337 -0.49104667 -0.40584177 -0.40668848 -0.22588679
-1.0608112 -0.380728 -0.10566909 -0.9067034 -0.085461214 -0.048307832 -0.22502118 -0.26404464
-0.6887521 -0.6415098 -1.0558128 -0.015374688 -1.4033252 -0.15812594 -0.4360571 -0.28605232
-0.16705549 -0.14643876 -0.16224816 -0.095629364 -0.14255898 -0.19685434 -0.9053858 -0.1306902
-0.8083571 -0.1154356 -0.22471805 0.022008538 -0.7355721 -0.18551593 0.09700023 -0.38570914
-0.52392495 -0.1993215 -0.10244592 -0.08662392 -0.27117148 -1.261919 -0.08450051 -0.8661273
-0.6623816 -0.9613309 -0.987281 -0.82419735 -0.27991948 -0.16303144 -0.21753737 -0.33602408
-0.34506828 -0.24279067 0.059705295 -0.2224264 -0.6026632 -0.27779523 -0.107979715 -1.0800228
-1.6429416 -0.5721944 -0.8874478 -0.053314567 -0.18520007 -0.11173125 -0.028206736 -0.30195713
-0.141241 -0.19328468 -0.48581073 0.019593773 -0.28428286 -0.01933829 -0.07840773 -0.5390587
-1.4765452 -0.3085792 -0.29968464 0.07296437 -0.46580353 -1.9018073 -0.09083508 -0.39869374
-0.82268167 -0.1933604 -0.028850991 -0.28824127 -0.8927998 -0.122434296 -0.10320712 -0.54619795
-0.13479085 -0.11025407 -0.67397726 -0.07614763 -1.1070803 -0.49333486 -1.9096979 -0.19876936
-1.2187926 -0.22638775 -0.3872045 -0.3218895 0.07468852 -0.07830883 0.007334793 -0.053983632
-0.23769529 -0.06017615 -0.61270297 -0.27871335 -0.37368256 -0.47088942 -0.30985218 -0.23682505
-0.2882274 -0.23767498 -0.1341823 -0.18595506 -0.1627188 -0.02666503 -0.288436 -0.0373413
-0.4627023 -0.27604195 -0.19565113 -0.12755702 -0.37639034 -0.46091446 -0.2884616 -0.065563686
0.007738253 -0.0054880986 -0.5144851 -0.10568998 -0.54441583 -0.29367062 -0.0265383 -0.100203276
-1.3305384 -0.3555839 -0.22260614 -0.94819975 -0.4307845 -1.0368416 -0.25595114 -0.13263513
-0.27661133 -0.22157721 -0.10791736 -0.091961704 -0.3370286 -0.071914725 -0.6741094 -0.23885588
-0.39607263 -0.2535588 0.016327333 -0.25541872 -1.2128313 -1.007655 0.006106452 -0.22982672
-0.6902669 -0.7705113 -0.14672607 -0.50787145 -0.3416794 -0.23542704 -0.41161233 -0.13998143
-1.0729351 0.053751584 -0.09865149 -0.72795737 -0.017521633 -0.12209957 -0.10452764 -0.35501632
-0.79142714 -0.6328244 -0.26037553 -0.054133065 -0.10317929 -0.5552635 -0.17750865 -0.7211276
-0.16512749 -0.08943195 -0.23663497 -0.1792398 -0.27134952 -0.2813907 -0.13614902 -0.008624646
-0.7768925 -0.23166178 0.123712234 0.0321929 -0.16496468 -0.2789877 -0.06551899 -0.14269137
00000000: 37ce 58be 34c1 b5be 0102 01be cf44 65bd
00000010: b857 e4bd 89b0 cdbc e2de 2ebe 86e1 19bd
00000020: 7103 6cbf 5048 e5bf 86a4 09be 066b 65bf
00000030: f7c2 9cbe ef91 efbe 4c5a 27bf 2491 74be
00000040: cf7c 8dbe 84d9 1abe 4626 1abe ff9e 9fbe
00000050: 633d 6dbf 41cd 6fbd a7df a73d 182e 38be
00000060: 7d7b 4fbf 2a13 1dbf cb42 0abe f2da b7bf
00000070: e4a6 95bf 1df6 22bf 5a25 12bf c71b 3abe
00000080: e0e2 6fbe 2499 12be cfc1 ddbd 180d 4bbe
00000090: cd37 43bf 5988 97be dd4d adbf dbb6 afbd
000000a0: f6eb c3be 15de 913c 65ec bebe f80c c9be
000000b0: d0b2 fabf 8baa 70bf e73d 4a3c ae5d a3bb
000000c0: dbae 52bf 1582 6cbf ae74 7ebe b96d e2be
000000d0: 786a fbbe 7eca cfbe 7939 d0be de4e 67be
000000e0: a9c8 87bf c8ee c2be 0969 d8bd b71d 68bf
000000f0: 4a06 afbd 6fde 45bd f46b 66be dc30 87be
00000100: 0f52 30bf fc39 24bf e024 87bf 1ee6 7bbc
00000110: 29a0 b3bf c4eb 21be e042 dfbe 7375 92be
00000120: 9810 2bbe 0bf4 15be 6224 26be 54d9 c3bd
00000130: fbfa 11be 2f94 49be 5dc7 67bf a7d3 05be
00000140: 7ef0 4ebf 8069 ecbd 7d1c 66be 404b b43c
00000150: 744e 3cbf e3f7 3dbe 0ea8 c63d ab7b c5be
00000160: f21f 06bf ef1a 4cbe 2bcf d1bd e267 b1bd
00000170: fdd6 8abe 9086 a1bf 9a0e adbd 85ba 5dbf
00000180: d791 29bf c819 76bf 73be 7cbf 99fe 52bf
00000190: 9b51 8fbe b7f1 26be 1ec2 5ebe 590b acbe
000001a0: caac b0be 1e9e 78be 8a8d 743d bfc3 63be
000001b0: 2348 1abf 2d3b 8ebe 7824 ddbd 303e 8abf
000001c0: e94b d2bf 557b 12bf c72f 63bf 6060 5abd
000001d0: 16a5 3dbe 5bd3 e4bd d011 e7bc 209a 9abe
000001e0: 7ba1 10be 6bec 45be 2fbc f8be 1f83 a03c
000001f0: 868d 91be 556b 9ebc 3b94 a0bd c0ff 09bf
00000200: 6fff bcbf 18fe 9dbe 4470 99be 586e 953d
00000210: cd7d eebe 6c6e f3bf be07 babd 9621 ccbe
00000220: 449b 52bf 4500 46be ea58 ecbc 5c94 93be
00000230: 878e 64bf d5be fabd 415e d3bd a1d3 0bbf
00000240: 9d06 0abe e3cc e1bd c689 2cbf 4af3 9bbd
00000250: cfb4 8dbf 6396 fcbe fb70 f4bf 328a 4bbe
00000260: 6501 9cbf 31d2 67be ab3f c6be b3ce a4be
00000270: 4bf6 983d 6160 a0bd b458 f03b f11d 5dbd
00000280: 6566 73be 447b 76bd 1ada 1cbf 84b3 8ebe
00000290: 5253 bfbe 6b18 f1be f2a4 9ebe 4482 72be
000002a0: 8b92 93be 1261 73be 1667 09be 016b 3ebe
000002b0: c29f 26be 9f70 dabc e2ad 93be 31f3 18bd
000002c0: 51e7 ecbe 5f55 8dbe c558 48be 4f9e 02be
000002d0: 3cb6 c0be fbfc ebbe 3db1 93be 4146 86bd
000002e0: 2c91 fd3b 82d5 b3bb 4cb5 03bf fd73 d8bd
000002f0: d65e 0bbf ff5b 96be d966 d9bc 6037 cdbd
00000300: 154f aabf 180f b6be ddf2 63be 38bd 72bf
00000310: c98f dcbe 3ab7 84bf 070c 83be 81d1 07be
00000320: 00a0 8dbe 23e5 62be c703 ddbd 6b56 bcbd
00000330: 038f acbe 0748 93bd 6f92 2cbf a396 74be
00000340: 08ca cabe 76d2 81be e6c0 853c 3ec6 82be
00000350: 0e3e 9bbf d7fa 80bf a218 c83b b257 6bbe
00000360: 55b5 30bf 3b40 45bf 5c3f 16be dd03 02bf
00000370: 9af0 aebe c913 71be dabe d2be 4b57 0fbe
00000380: f055 89bf 9f2a 5c3d cb09 cabd 6a5b 3abf
00000390: 8789 8fbc 570f fabd 9612 d6bd b3c4 b5be
000003a0: f89a 4abf c800 22bf f14f 85be a2ba 5dbd
000003b0: aa4f d3bd c025 0ebf d4c4 35be d29b 38bf
000003c0: 2e17 29be 1928 b7bd 7050 72be a38a 37be
000003d0: 53ee 8abe 7112 90be a66a 0bbe 634e 0dbc
000003e0: 6de2 46bf bf38 6dbe d75c fd3d b4dc 033d
000003f0: 80ec 28be 7ad7 8ebe d22e 86bd b01d 12be

bias f4 [10]
-0.5105426 -0.82031935 -0.12906076 0.7161132 0.4683979 -0.24923304 0.36993152 -0.32095885
0.2531874 0.043698695
00000000: ebb2 02bf 7300 52bf 8128 04be 3253 373f
00000010: d9d1 ef3e f236 7fbe aa67 bd3e b854 a4be
00000020: c7a1 813e 67fd 323d
